gnn_checkpoints/appnp_cora.pt (torch, 93937 bytes, 4 tensors)

lin1.weight f4 [16, 1433]
000000 6e f1 72 bd dd 67 eb 3c b1 b4 65 bd d5 8b 50 3d
       -0.059312277 0.02873605 -0.056080524 0.050914604
000010 28 26 8c 3e e0 0d 71 bd c1 d1 ad bd a7 33 76 3c
       0.2737286 -0.058851123 -0.08487273 0.015026963
000020 40 82 6c 3d a4 4f e4 bd f5 6f 5e be da 37 1c bd
       0.057741404 -0.11148003 -0.21722396 -0.0381392
000030 e7 58 1a 3e bf ed 2a be 5e 1d fa 3d 36 81 02 3e
       0.15072976 -0.16692255 0.122126326 0.12744603
000040 d8 81 2f bc 73 26 1d 3e 61 94 76 bd c6 d3 95 be
       -0.0107121095 0.15346698 -0.0602001 -0.29263133
000050 55 c1 21 3c 1f 83 15 3c 50 c7 e6 3c 54 ff 48 be
       0.009872754 0.0091255 0.028171211 -0.1962865
000060 80 90 48 3e 43 b6 2a 3e 5e 74 11 3e ca a9 53 3e
       0.19586372 0.1667109 0.14204547 0.20670238
000070 dd 08 03 3e 91 d4 47 3e 36 f2 53 3e a2 dd 83 3d
       0.1279635 0.19514681 0.20697865 0.064387575
000080 52 06 7c bd fd 68 da 3d 02 1a dc 3c 1f ac 14 bc
       -0.061529465 0.10664556 0.02686787 -0.00907424
000090 99 cc b6 bc 45 87 5a 3d 26 ed 6a be 29 9b d1 3d
       -0.022314357 0.05335166 -0.22942027 0.102346726
0000a0 65 50 88 3e 7e a7 8c 3d dc ea 86 bd 1b c7 98 3d
       0.26623836 0.06867884 -0.065877646 0.07459851
0000b0 1c 7f a0 3d 60 30 d5 3d 1e ed 83 3d 1d 12 89 3e
       0.07836744 0.104096174 0.06441711 0.26771632
0000c0 d0 6c e3 3d ac ed 12 3e e9 18 63 3e 22 33 61 3e
       0.11104739 0.14348477 0.22177471 0.21992162
0000d0 96 8c 99 3e cf fc 4c be 46 c4 22 3e f5 0b 0d 3d
       0.2999007 -0.20018314 0.15895185 0.03443523
0000e0 9d d2 41 3e 38 07 c4 3d c6 cc 1e 3e 45 cd c9 bb
       0.18927999 0.09571689 0.15507802 -0.0061585032
0000f0 cb 75 46 3e 5f 29 44 be 62 bf 2c bc e3 9f a4 bc
       0.19380872 -0.19156407 -0.010543676 -0.020095771
000100 76 6e 1d 3e 47 5d 1c 3d 30 fa 1e be a2 b7 da 3c
       0.15374169 0.038174894 -0.15525126 0.026698891
000110 fc 1c b5 bc 31 1f 2b 3e 5a a1 88 3e 3f 33 40 3e
       -0.022108547 0.16711117 0.266856 0.18769549
000120 85 14 05 be 3a 9f 00 be fd 22 84 3e d1 4f 52 be
       -0.12996109 -0.1256074 0.25807944 -0.2053826
000130 c9 24 cb 3d b8 f0 24 be 04 b4 7c 3e 9c fe 1a bd
       0.099191256 -0.16107452 0.24678046 -0.03784047
000140 1f 43 0c be 04 e7 13 3e 19 db e3 3d 5d f2 a1 3d
       -0.1369748 0.14443594 0.11125774 0.07907555
000150 32 be 45 3e 3e 1f 54 be fb fc 3a 3e 3f 18 4c 3e
       0.19310835 -0.20715043 0.18260567 0.19931124
000160 92 77 11 3e 1f 18 02 bd 36 fa f3 3d 6d ab 50 3e
       0.14205769 -0.031761285 0.11912958 0.20377894
000170 3a 96 b6 3d 29 a0 5a 3e ac db 26 3e ad 05 95 3c
       0.08915372 0.21350159 0.16294736 0.018191183
000180 37 a5 b7 3d 5b 81 c2 3d 86 55 7e 3e 5f db 84 be
       0.08967059 0.09497329 0.24837312 -0.25948617
000190 f5 5a b8 3d b7 b4 b0 bd 00 d3 15 3e d9 a5 74 be
       0.09001724 -0.086282186 0.14631271 -0.23891391
0001a0 83 74 13 be 9c a4 6f bc 4b c0 2d 3e aa 82 0b 3e
       -0.14399914 -0.014626648 0.16967885 0.13624063
0001b0 94 06 73 3e 59 6d 11 3e 1a 3f 25 be 87 94 af bd
       0.23732978 0.14201869 -0.16137353 -0.08573251
0001c0 d0 52 00 3e 7a ee 05 bd 86 fd 36 be b7 61 fe bd
       0.1253159 -0.032698132 -0.17870149 -0.124209814
0001d0 b1 94 5e bd 71 21 f8 3d d1 4b 00 be 15 c4 17 3e
       -0.054341022 0.121157534 -0.12528922 0.14820893
0001e0 2f 6f 6b 3d 54 92 0c 3e f4 52 1e 3e 1a 5d 6d 3b
       0.05747908 0.13727695 0.15461332 0.0036218823
0001f0 99 ac 12 be 91 13 7e bd ea 60 ab 3d e6 19 3a 3e
       -0.14323653 -0.06203038 0.08368094 0.18173942
000200 1f 33 67 3e 6c 6b 5d 3e 4a be 6e 3c a4 51 62 3e
       0.22578095 0.2162301 0.014571736 0.22101456
000210 44 9b 93 bd c2 ef 62 3e e1 d5 0b be f1 a2 c9 3d
       -0.07207349 0.22161773 -0.13655807 0.09845532
000220 00 40 c9 bd 6b ed a6 3d 30 40 00 be 2f b1 3f 3e
       -0.0982666 0.08150753 -0.12524486 0.18719934
000230 c3 d0 66 be 7e 73 24 bd 40 75 61 38 24 c5 86 3c
       -0.22540574 -0.040149204 5.3753378e-05 0.016451426
000240 80 9a f2 bd 27 55 e5 bd d7 b4 ab bc 3d 42 7a 3e
       -0.11845875 -0.11197882 -0.020960255 0.2443933
000250 31 fd 07 be 8e 37 37 3e 16 67 32 3e 2c a5 7c 3c
       -0.13280179 0.17892286 0.17422137 0.015420239
000260 81 02 ef 3d 4c c1 fa 3d 67 9d d3 3b 62 d3 7e 3b
       0.116703995 0.122439 0.006457973 0.0038883318
000270 92 7c 8c 3d e4 4c 39 be a9 b0 da bd 46 78 dc bc
       0.068596974 -0.18095738 -0.106782265 -0.02691282
000280 11 e6 38 be eb 57 34 3e 38 b4 b9 3d 3e e2 2e be
       -0.18056513 0.17611663 0.09067577 -0.17078492
000290 9c 59 68 bd 40 fb 35 3e 08 a7 28 bd fa 62 04 be
       -0.056726083 0.17771626 -0.04117492 -0.12928382
0002a0 86 f2 82 bb 79 6c 9d bd d0 5b 20 3e 34 08 67 bc
       -0.003996196 -0.07686705 0.15660024 -0.014101077
0002b0 b2 d6 ca 3d a0 88 14 3d ac d9 44 3e e2 73 96 3b
       0.09904231 0.03626311 0.1922366 0.004591451
0002c0 34 82 80 bd e1 da d6 3c 5f 61 da 3d 2b 30 da 3d
       -0.06274834 0.026227416 0.10663103 0.106537186
0002d0 51 12 0e 3e 8c 19 af bd 56 4e 48 bc 57 68 a3 3d
       0.13874175 -0.085497946 -0.012225708 0.079788856
0002e0 e3 c2 cf 3d e1 ad 5d 3d 07 74 d2 3d 36 88 57 bd
       0.101445936 0.054120902 0.10276037 -0.052620135
0002f0 33 23 10 3e e3 82 63 3d 40 0a 22 3e 9a 03 29 3e
       0.14075927 0.055544745 0.15824223 0.1650528
000300 d6 9a 1a 3a 30 65 dd 3d 8d 38 ea bd 5f b6 81 3e
       0.0005897706 0.108103156 -0.114365675 0.2533445
000310 a7 db de bd 0b e7 2b 3e ce dd cf bd 8d 2c d8 bd
       -0.10881739 0.16787355 -0.10149728 -0.105553724
000320 81 f1 80 3e 5c 4a d6 3a 47 6b 8d 3e db 86 a1 bd
       0.25184253 0.0016349065 0.2762091 -0.0788705
000330 46 ee 2e 3e eb f8 ff 3d d0 c1 46 bd 93 9f bd bd
       0.17083082 0.12498649 -0.048524678 -0.09258952
000340 d7 ed 58 be 07 54 bd bd f1 4c 0e bc 20 01 be 3d
       -0.21184479 -0.092445426 -0.008685336 0.09277558
000350 92 d3 ab bd 56 9c f6 bb c1 92 29 be 9a cc 59 3c
       -0.08389963 -0.007525961 -0.16559888 0.01329341
000360 4d 60 23 be f4 d5 ee 3d 52 b1 12 3e 52 49 05 3d
       -0.15954705 0.11661902 0.14325455 0.032540627
000370 b5 d0 42 3d c2 42 a1 3d e8 f9 ae 3d c7 d0 38 3d
       0.04756232 0.07874061 0.085437596 0.04512098
000380 68 12 b8 3d 8f 9a 62 be e2 13 65 3d de bc b3 bd
       0.08987886 -0.22129272 0.055927165 -0.08776258
000390 c6 26 54 3e 1e 7c 1d be 60 0c 0d 3d 0b 86 af 3d
       0.20717916 -0.15379378 0.03443563 0.085704885
0003a0 d1 ba 28 3e 98 63 a2 3d c8 59 d2 3d ef 01 17 bd
       0.16477515 0.07929152 0.10271031 -0.03686708
0003b0 5d b7 5f 3e 6e 6a 7f 3e f7 5b 13 bd 29 77 9a 3d
       0.21847291 0.24942943 -0.035976376 0.07542259
0003c0 fc 67 3a be 0d b1 a3 3d 40 87 2a 3d 9c c7 2e bd
       -0.1820373 0.07992754 0.04163289 -0.04267083
0003d0 a7 6a f4 3d 4d ba 46 3e 8a 83 02 3e c3 cc 7a bd
       0.11934405 0.19407006 0.1274549 -0.061230432
0003e0 18 b8 c8 3d 15 03 fa bd 5f d7 14 3b 80 a5 c3 3c
       0.09800738 -0.12207619 0.002271138 0.023882627
0003f0 33 a4 e4 bc 15 53 4b bd be 56 1e be 07 63 fa 3d
       -0.027910328 -0.04963978 -0.15462777 0.12225919

lin1.bias f4 [16]
000000 fb d4 51 3e 2e e2 76 3e 73 14 69 3e f0 b6 8b 3e
       0.20491402 0.24109718 0.22761707 0.27288008
000010 cc ff 2b 3e a4 34 90 3e ad 91 81 3e ed de 93 3e
       0.16796798 0.28165162 0.25306454 0.28881016
000020 c3 21 8b 3e f3 6c 53 3e 86 04 72 3e 17 c2 95 3e
       0.27174196 0.2064703 0.23634538 0.2924964
000030 cb 27 52 3e b3 31 77 3e d2 2c 90 3e af a7 68 3e
       0.20522992 0.24140052 0.28159195 0.22720216

lin2.weight f4 [7, 16]
000000 39 7d d8 3e eb ea f5 be 2a c8 aa 3e 61 82 d6 be
       0.42283037 -0.4803079 0.33355838 -0.41896346
000010 b0 a5 cf 3e a3 74 e1 be f6 93 02 3f d3 aa 06 bf
       0.40556097 -0.440343 0.5100702 -0.5260441
000020 2e f6 bc be f8 16 0c 3f f7 b4 94 3e aa dc f1 be
       -0.3690657 0.5472255 0.29044315 -0.47238666
000030 4b b9 f3 3e 17 4f e6 be d0 90 da 3e 66 6e 9e 3c
       0.47602305 -0.44982216 0.42688608 0.019339751
000040 d0 b0 f2 be 89 17 d7 3e 58 6d 2b be 2d 3c e2 3e
       -0.47400522 0.42010143 -0.1674093 0.44186535
000050 dc cb a8 be ec 9a ec 3e a6 63 df be 0c 9c f3 be
       -0.32968032 0.46211946 -0.43630713 -0.47579992
000060 a9 85 e5 be 27 49 ad be b5 33 fe be 33 e5 0b 3f
       -0.44828537 -0.33844873 -0.49648824 0.54646605
000070 a3 3d 63 be 15 ee 8d be 13 25 bd 3e f3 8c d8 3e
       -0.22191481 -0.27720705 0.36942348 0.42295036
000080 61 9a 03 bf b3 0f 07 bf 14 49 ed be be 2c 9f 3e
       -0.5140744 -0.5275833 -0.46344817 0.31088823
000090 cc 13 0c 3e 31 97 5b 3e 15 83 92 3e 70 ca ed 3e
       0.13679427 0.21444394 0.28615633 0.4644351
0000a0 a7 9a 39 3e 86 89 f0 3e c2 72 be be c1 2f f6 be
       0.18125401 0.46979922 -0.37196928 -0.48083308
0000b0 ca b0 db 3e b1 df dd 3e 10 a4 fc be 7c ec ca 3e
       0.42908317 0.43334725 -0.4934392 0.39633548
0000c0 19 f4 ab 3d 39 5d b1 3d ca 9c 07 3f 19 f6 ca 3e
       0.08396167 0.08660359 0.52973616 0.39640883
0000d0 ec 88 c2 be a6 81 07 bf 07 88 96 be fc b4 ce 3e
       -0.37995088 -0.529322 -0.29400656 0.40372455
0000e0 c2 06 01 bf 24 85 f0 be 0d c0 e6 3e f7 5d 86 3e
       -0.50400937 -0.46976578 0.45068398 0.26243564
0000f0 b6 8e e5 3e f2 68 9b 3e ff 04 89 3e ad 73 a9 be
       0.44835442 0.30353504 0.26761624 -0.33096066
000100 40 29 e0 be 66 7a d4 be 8f ac ae be 47 aa 08 bf
       -0.4378147 -0.41499633 -0.34116027 -0.5338482
000110 98 bc ac be 08 a7 c8 3e ed 25 e1 3e 17 bf 9f be
       -0.33737636 0.39189935 0.43974248 -0.31200477
000120 1c d1 0c 3f d4 60 c0 be bb 1d 01 bf 55 c9 0e 3f
       0.55006576 -0.37573874 -0.5043599 0.5577596
000130 99 81 cc be ef 5a d7 be a0 2d 0b 3f b4 82 03 3f
       -0.39942625 -0.42061564 0.54366493 0.5137131
000140 d7 c0 ff 3e 93 0f bc 3e 4d 0c b7 be 21 e9 06 3f
       0.49951813 0.36730632 -0.35751572 0.52699476
000150 b0 99 fd be d4 6e f2 3e db d5 e2 be ac 43 10 bf
       -0.49531317 0.4735018 -0.44303784 -0.5635326
000160 7d 3d eb 3e 60 41 72 3e 04 cd 0b bf d7 9b dd be
       0.4594535 0.23657751 -0.54609704 -0.4328296
000170 df da cc be 38 21 bb 3e 4c 29 0b bf 06 bf 05 bf
       -0.40010735 0.3654878 -0.5435989 -0.52244604
000180 0c ae ee 3e e1 e0 95 3e 2b d2 cc 3e e0 85 ad be
       0.46617162 0.2927313 0.40004095 -0.338912
000190 9c 3f ca 3e d5 d7 c3 be 64 ee d3 be 10 d8 98 3d
       0.39501655 -0.38250604 -0.41392815 0.07463086
0001a0 af 5b dc 3e 01 67 02 bf 7e 4b b1 be 00 5d a0 be
       0.430387 -0.5093842 -0.34627908 -0.31320953
0001b0 16 cc cd 3e 57 fc f5 3e b7 2d ad be e5 42 09 bf
       0.40194768 0.48044083 -0.3382394 -0.536177

lin2.bias f4 [7]
000000 08 be 8d 3d 9d d3 e6 3d 92 74 98 be 04 8e 95 be
       0.06921011 0.11270831 -0.29776436 -0.29209912
000010 c6 71 43 3c a6 8f 75 3e 50 1d 46 3d
       0.011928981 0.23980579 0.0483678
