gnn_checkpoints/gat_cora.pt (torch, 95577 bytes, 10 tensors)

convs.0.att_src f4 [1, 8, 2]
000000 43 39 ca 3e 57 08 03 bf 1c 62 cd 3e 67 88 01 bf
       0.39496812 -0.511846 0.40113914 -0.5059876
000010 da 58 5a 3e db 34 00 bf 60 74 1b 3f 61 c0 20 bf
       0.21322957 -0.5008065 0.6072445 -0.62793547
000020 94 e3 ca be 89 72 34 3f e0 14 a8 3e 81 64 0c bf
       -0.39626753 0.70487267 0.32828426 -0.54840857
000030 a0 d7 1d 3f 96 bb d2 be e7 fa 1a 3f d6 61 30 3e
       0.6165714 -0.41158742 0.60539097 0.17224821

convs.0.att_dst f4 [1, 8, 2]
000000 69 71 8f 3e 25 16 00 bf 9a ec ab be 2a 5f 3c bf
       0.28016213 -0.5003379 -0.3357895 -0.7358271
000010 67 30 15 be 48 39 bc bd 43 45 8c 3e b8 ac 7e be
       -0.14569245 -0.09190613 0.27396592 -0.24870574
000020 80 39 8f be b3 d1 48 be 8e 2b b3 3e 59 fd 9b be
       -0.27973557 -0.19611244 0.34994167 -0.30466726
000030 7b 88 7e 3e f0 46 cd be 73 f5 6d 3e db f3 31 3e
       0.2485675 -0.40093184 0.23238163 0.1737818

convs.0.bias f4 [16]
000000 c7 81 b6 bc 2b af 47 3d 92 1e 00 bd 97 40 aa bd
       -0.02227868 0.048751038 -0.031279154 -0.08313101
000010 97 d3 62 bc 8d e3 2a 3c c3 e4 ea 3d 01 25 d5 3b
       -0.013844392 0.010430229 0.11469414 0.0065046553
000020 83 40 6e bd 7e 34 82 3d 0a 59 09 bd 7e 27 10 3d
       -0.058166992 0.06357668 -0.03353218 0.035193913
000030 55 71 b9 bb 48 fa 54 bd 2a 7b da 3c 89 56 26 bd
       -0.005659262 -0.0519965 0.026670057 -0.04060987

convs.0.lin_src.weight f4 [16, 1433]
000000 db 98 db bc 6e 48 1d 3e 35 61 28 bc 58 4e dd 3d
       -0.026806286 0.15359661 -0.010277082 0.108059585
000010 15 bd 9e 3d 1b 51 ad 3d 20 9b 13 bd c7 36 11 be
       0.07750908 0.08462735 -0.03603661 -0.14181052
000020 f8 5b c6 3d f5 c9 08 3c fa ff 97 bd 88 24 87 bd
       0.096855104 0.008348932 -0.074218705 -0.06598765
000030 a4 ae 0c bd 20 ab a9 bc 30 0d 69 3d ab 79 49 bc
       -0.034346238 -0.020711482 0.056897342 -0.012297074
000040 78 b7 bb bd 46 5c 12 3d 56 ea 87 3e ce ba c6 3d
       -0.09165853 0.03573253 0.26545972 0.09703599
000050 38 8c 0f 3d db 1e bc bd be 9d 95 bb 00 28 00 3e
       0.035045832 -0.09185573 -0.0045659235 0.12515259
000060 2d d0 37 bd 7f 24 c0 bd 64 47 61 3d 9a 3a 73 3c
       -0.044876266 -0.09381961 0.054999724 0.014845515
000070 67 a6 e1 bd 04 b5 16 bc 6d d2 03 3e 16 c0 17 3c
       -0.11018067 -0.009198431 0.1287324 0.009262105
000080 69 62 80 3d ff ee 48 3e ac c2 04 be 43 20 14 be
       0.0626877 0.1962242 -0.12964886 -0.14465432
000090 e6 e9 0c 3d 0a d4 21 bd 3b b3 11 be 0e 2e dd 3d
       0.03440275 -0.039508857 -0.14228527 0.107998
0000a0 4f bf 2e be 5c 63 f2 bd 67 33 4d 3d 8b 6c ca bc
       -0.17065166 -0.118353575 0.05009785 -0.02470996
0000b0 44 79 82 bc fb d6 cb bd 78 d3 a9 bb 31 64 a0 3c
       -0.015926965 -0.09953114 -0.0051826797 0.019579025
0000c0 77 a8 67 3d 3a 45 6c 3d ae c5 b6 bc 19 ca 2f 3e
       0.056557145 0.057683207 -0.022311058 0.17166938
0000d0 29 98 e4 3c 5b 2c 48 3e 2b fc 14 be 3c bc 0c 3b
       0.027904587 0.1954817 -0.1454932 0.00214745
0000e0 bf 04 d8 3d b0 1a 06 3d 99 c1 1f 3e 07 55 45 bd
       0.1054778 0.032740295 0.15601195 -0.04817679
0000f0 14 ca 0b be fe b5 23 3d 43 65 36 3d 53 01 85 bd
       -0.13651305 0.039968483 0.044530164 -0.06494393
000100 c6 36 f5 3c 4d d7 76 3c b7 8b 4b 3d ee 4c 43 bd
       0.029933345 0.01506598 0.04969379 -0.047680788
000110 c9 c2 66 3d f1 47 3b 3e 84 fa 12 3d 74 0f be bd
       0.056338105 0.18289162 0.03588344 -0.09280291
000120 d3 f1 b5 3d 59 41 c0 3d 0c 86 0b 3e 9b 4b 6b 3d
       0.08884015 0.09387464 0.13625354 0.05744515
000130 5e ad e5 3d cf ef a6 3d 65 aa 72 3d 27 f2 0f bd
       0.11214708 0.081512086 0.059244532 -0.035143044
000140 bc a3 a5 bd aa df 80 3d d1 05 fb bd df 0a 1a 3c
       -0.080878705 0.062926605 -0.12256969 0.009402006
000150 63 02 04 be 3a 77 93 3d 1f ab 41 3c e3 81 a1 3c
       -0.12891535 0.07200475 0.011820584 0.019715255
000160 53 6a 48 3e 84 1d 13 bd 02 de fa 3d cb 8e c4 bc
       0.1957181 -0.03591682 0.12249376 -0.02399387
000170 74 09 fc bc 73 0b 39 be ae 45 84 bd e0 01 9e 3d
       -0.030766226 -0.18070774 -0.06458603 0.077152014
000180 31 6a ac 3d 04 70 b1 bd 2b c0 72 bc 74 71 42 be
       0.08418692 -0.086639434 -0.014816324 -0.18988591
000190 0b 0c 2c 3d 27 5e 0f 3d 22 46 84 bd 4f 7f 94 3d
       0.042003673 0.0350019 -0.06458689 0.07250845
0001a0 79 0b 75 bd 5a ea 29 3e 7d 83 10 3c a4 b1 b1 3d
       -0.059825394 0.16593304 0.008820412 0.086764604
0001b0 1c 0d d7 3d 96 37 8b 3d 3e 03 6e bd 59 b6 06 be
       0.10500547 0.067977116 -0.05810856 -0.13155498
0001c0 b6 21 a0 3d 09 10 9e 3b a0 25 17 3d 04 f4 07 bc
       0.0781893 0.004823689 0.036901116 -0.008297924
0001d0 1a b8 b5 bd e5 4c 47 3c a1 d8 0d be 55 99 35 be
       -0.08873005 0.012164329 -0.13852169 -0.17734273
0001e0 ca be 7b 3c 12 5f 92 3d 24 c1 a3 3d bf 17 89 bd
       0.015365312 0.071470395 0.07995823 -0.06693982
0001f0 dc 24 e7 bc 41 d9 2d bd 72 08 6a ba 27 fd d7 3d
       -0.028215818 -0.042443518 -0.000892765 0.10546332
000200 1b 6e 19 3c 9f d4 35 bd 4e 43 bc bd 22 63 cb 3d
       0.00936463 -0.044392224 -0.09192525 0.099310175
000210 41 d7 4b bd e2 74 59 3c ea 87 6c be 14 93 c6 3d
       -0.04976583 0.013272496 -0.23098722 0.09696022
000220 7b eb 44 3d 9b 01 aa bc d0 18 2d 3d 9f 1a b4 3c
       0.048076134 -0.020752719 0.04225999 0.02198535
000230 8b f0 59 be 45 89 8b be 1d 8d f6 3d 96 d1 cd 3d
       -0.21283166 -0.27253166 0.12038634 0.10049741
000240 d4 54 f8 bd 62 31 b5 3d 17 c4 4f 3e 16 da 22 bd
       -0.12125555 0.0884731 0.20289646 -0.039758764
000250 74 1d 10 bc 15 46 87 3d f5 d7 81 3d ca dd e4 bb
       -0.008796085 0.06605164 0.06340019 -0.006984447
000260 52 6e bb 3d 7a 6b 49 3d e9 89 ec bd 3d 6e dd 3d
       0.09151901 0.049174763 -0.11549742 0.10812042
000270 f8 bf 32 3e 7e 27 e9 3d 89 c5 11 be 31 06 02 be
       0.17456043 0.11384486 -0.1423551 -0.12697674
000280 47 84 0d 3e 9c 36 76 bd 1b 9b b7 3c c9 18 df bd
       0.13819991 -0.060110673 0.022412827 -0.10893399
000290 49 a5 04 3d 9a d5 58 bd 13 da 52 3b f3 16 fd bd
       0.03238419 -0.05293808 0.003217344 -0.12357893
0002a0 2d 22 95 bd 66 f0 6a bd b2 dd 7d bd 3d 2b e8 3c
       -0.07281909 -0.057358168 -0.061979003 0.02834093
0002b0 74 3b f7 3d 48 09 ae bd dd 86 9d bc 7e f0 f6 bd
       0.12071887 -0.08497864 -0.019229347 -0.12057589
0002c0 35 4b 53 3d 26 ea ba 3d e1 a0 5b be cd a0 13 3e
       0.051585395 0.091266915 -0.21448089 0.1441681
0002d0 39 e2 4e bd 14 bd 9a 3c d8 a0 18 bd 65 d4 c8 bc
       -0.05050871 0.018888988 -0.037262768 -0.02451534
0002e0 47 61 49 bd e8 49 ec bc 5a 82 97 bc 67 55 33 be
       -0.049165037 -0.028843835 -0.018494774 -0.17513047
0002f0 27 4f 58 3b 57 bb 8c bd 99 c6 55 3d e1 89 5a be
       0.0033006163 -0.0687167 0.05219135 -0.21341659
000300 f4 a6 5e bd b6 5d 34 be b4 bd 8c bd 86 df 44 3b
       -0.054358438 -0.17613873 -0.068721205 0.0030040457
000310 28 48 d0 bd 2d 68 67 bd 43 b9 02 3e b3 37 ec 3d
       -0.10170013 -0.056495834 0.12765984 0.11534061
000320 4e 49 ed bb df 0f c4 3c 46 0f 33 be 33 d4 76 3d
       -0.0072414046 0.02393335 -0.17486295 0.060260963
000330 8a 9b 03 3d a9 db 7a bc bc e5 9c bd 7e 23 f9 3c
       0.032130755 -0.01531116 -0.07661006 0.030412432
000340 78 84 88 be 7b bb 4d bd 9b bf 94 bc aa 63 23 3c
       -0.26663566 -0.050227623 -0.01815777 0.009972492
000350 b6 40 a9 bc f0 a3 f6 bd 8d 92 8e be 41 b4 ae 3c
       -0.02066074 -0.12042987 -0.27846184 0.021326186
000360 b3 06 3b 3b 9b 12 84 3d ac 9b 14 bd 92 9e e0 bd
       0.0028537929 0.06448861 -0.036281273 -0.10967745
000370 9e 24 66 ba f8 7d 8d 3b 21 d3 4d bd ec 8b 51 3c
       -0.000877926 0.004317995 -0.050250176 0.012789708
000380 78 a9 02 be 76 ea 37 be fe bb 28 3d 5b 8f 58 bd
       -0.1275996 -0.17960533 0.04119491 -0.05287109
000390 e9 52 a7 bd 26 93 bb 3d 2b e2 0c bc 2d 71 83 bd
       -0.08170111 0.09158926 -0.0085988445 -0.06418071
0003a0 ea e4 2d be 50 e8 d9 bd 3e 84 0a be ea c8 2a bd
       -0.16981855 -0.10640013 -0.13527009 -0.041695513
0003b0 d9 05 87 bd 1d 11 3e 3d cb 88 49 3e e1 31 9c bd
       -0.06592912 0.04640304 0.19681089 -0.07626701
0003c0 b9 2c 32 be 98 12 f3 3c 17 59 90 bd ef 5b 7f 3b
       -0.17399873 0.029671952 -0.070482425 0.0038964709
0003d0 c8 36 36 3e b5 c2 6b bd 29 be 10 3e b0 e1 ab 3c
       0.17794335 -0.057558734 0.1413504 0.02098164
0003e0 7e eb 10 3d 8d be 67 3d 05 81 d0 bd 06 2f 22 be
       0.035380833 0.056578208 -0.101808585 -0.1583825
0003f0 d1 8e 3f bb d8 7e 0a bd c3 1f 63 be ab 01 8b 3d
       -0.0029229412 -0.033812374 -0.22180085 0.067874275

convs.0.lin_dst.weight f4 [16, 1433]
000000 db 98 db bc 6e 48 1d 3e 35 61 28 bc 58 4e dd 3d
       -0.026806286 0.15359661 -0.010277082 0.108059585
000010 15 bd 9e 3d 1b 51 ad 3d 20 9b 13 bd c7 36 11 be
       0.07750908 0.08462735 -0.03603661 -0.14181052
000020 f8 5b c6 3d f5 c9 08 3c fa ff 97 bd 88 24 87 bd
       0.096855104 0.008348932 -0.074218705 -0.06598765
000030 a4 ae 0c bd 20 ab a9 bc 30 0d 69 3d ab 79 49 bc
       -0.034346238 -0.020711482 0.056897342 -0.012297074
000040 78 b7 bb bd 46 5c 12 3d 56 ea 87 3e ce ba c6 3d
       -0.09165853 0.03573253 0.26545972 0.09703599
000050 38 8c 0f 3d db 1e bc bd be 9d 95 bb 00 28 00 3e
       0.035045832 -0.09185573 -0.0045659235 0.12515259
000060 2d d0 37 bd 7f 24 c0 bd 64 47 61 3d 9a 3a 73 3c
       -0.044876266 -0.09381961 0.054999724 0.014845515
000070 67 a6 e1 bd 04 b5 16 bc 6d d2 03 3e 16 c0 17 3c
       -0.11018067 -0.009198431 0.1287324 0.009262105
000080 69 62 80 3d ff ee 48 3e ac c2 04 be 43 20 14 be
       0.0626877 0.1962242 -0.12964886 -0.14465432
000090 e6 e9 0c 3d 0a d4 21 bd 3b b3 11 be 0e 2e dd 3d
       0.03440275 -0.039508857 -0.14228527 0.107998
0000a0 4f bf 2e be 5c 63 f2 bd 67 33 4d 3d 8b 6c ca bc
       -0.17065166 -0.118353575 0.05009785 -0.02470996
0000b0 44 79 82 bc fb d6 cb bd 78 d3 a9 bb 31 64 a0 3c
       -0.015926965 -0.09953114 -0.0051826797 0.019579025
0000c0 77 a8 67 3d 3a 45 6c 3d ae c5 b6 bc 19 ca 2f 3e
       0.056557145 0.057683207 -0.022311058 0.17166938
0000d0 29 98 e4 3c 5b 2c 48 3e 2b fc 14 be 3c bc 0c 3b
       0.027904587 0.1954817 -0.1454932 0.00214745
0000e0 bf 04 d8 3d b0 1a 06 3d 99 c1 1f 3e 07 55 45 bd
       0.1054778 0.032740295 0.15601195 -0.04817679
0000f0 14 ca 0b be fe b5 23 3d 43 65 36 3d 53 01 85 bd
       -0.13651305 0.039968483 0.044530164 -0.06494393
000100 c6 36 f5 3c 4d d7 76 3c b7 8b 4b 3d ee 4c 43 bd
       0.029933345 0.01506598 0.04969379 -0.047680788
000110 c9 c2 66 3d f1 47 3b 3e 84 fa 12 3d 74 0f be bd
       0.056338105 0.18289162 0.03588344 -0.09280291
000120 d3 f1 b5 3d 59 41 c0 3d 0c 86 0b 3e 9b 4b 6b 3d
       0.08884015 0.09387464 0.13625354 0.05744515
000130 5e ad e5 3d cf ef a6 3d 65 aa 72 3d 27 f2 0f bd
       0.11214708 0.081512086 0.059244532 -0.035143044
000140 bc a3 a5 bd aa df 80 3d d1 05 fb bd df 0a 1a 3c
       -0.080878705 0.062926605 -0.12256969 0.009402006
000150 63 02 04 be 3a 77 93 3d 1f ab 41 3c e3 81 a1 3c
       -0.12891535 0.07200475 0.011820584 0.019715255
000160 53 6a 48 3e 84 1d 13 bd 02 de fa 3d cb 8e c4 bc
       0.1957181 -0.03591682 0.12249376 -0.02399387
000170 74 09 fc bc 73 0b 39 be ae 45 84 bd e0 01 9e 3d
       -0.030766226 -0.18070774 -0.06458603 0.077152014
000180 31 6a ac 3d 04 70 b1 bd 2b c0 72 bc 74 71 42 be
       0.08418692 -0.086639434 -0.014816324 -0.18988591
000190 0b 0c 2c 3d 27 5e 0f 3d 22 46 84 bd 4f 7f 94 3d
       0.042003673 0.0350019 -0.06458689 0.07250845
0001a0 79 0b 75 bd 5a ea 29 3e 7d 83 10 3c a4 b1 b1 3d
       -0.059825394 0.16593304 0.008820412 0.086764604
0001b0 1c 0d d7 3d 96 37 8b 3d 3e 03 6e bd 59 b6 06 be
       0.10500547 0.067977116 -0.05810856 -0.13155498
0001c0 b6 21 a0 3d 09 10 9e 3b a0 25 17 3d 04 f4 07 bc
       0.0781893 0.004823689 0.036901116 -0.008297924
0001d0 1a b8 b5 bd e5 4c 47 3c a1 d8 0d be 55 99 35 be
       -0.08873005 0.012164329 -0.13852169 -0.17734273
0001e0 ca be 7b 3c 12 5f 92 3d 24 c1 a3 3d bf 17 89 bd
       0.015365312 0.071470395 0.07995823 -0.06693982
0001f0 dc 24 e7 bc 41 d9 2d bd 72 08 6a ba 27 fd d7 3d
       -0.028215818 -0.042443518 -0.000892765 0.10546332
000200 1b 6e 19 3c 9f d4 35 bd 4e 43 bc bd 22 63 cb 3d
       0.00936463 -0.044392224 -0.09192525 0.099310175
000210 41 d7 4b bd e2 74 59 3c ea 87 6c be 14 93 c6 3d
       -0.04976583 0.013272496 -0.23098722 0.09696022
000220 7b eb 44 3d 9b 01 aa bc d0 18 2d 3d 9f 1a b4 3c
       0.048076134 -0.020752719 0.04225999 0.02198535
000230 8b f0 59 be 45 89 8b be 1d 8d f6 3d 96 d1 cd 3d
       -0.21283166 -0.27253166 0.12038634 0.10049741
000240 d4 54 f8 bd 62 31 b5 3d 17 c4 4f 3e 16 da 22 bd
       -0.12125555 0.0884731 0.20289646 -0.039758764
000250 74 1d 10 bc 15 46 87 3d f5 d7 81 3d ca dd e4 bb
       -0.008796085 0.06605164 0.06340019 -0.006984447
000260 52 6e bb 3d 7a 6b 49 3d e9 89 ec bd 3d 6e dd 3d
       0.09151901 0.049174763 -0.11549742 0.10812042
000270 f8 bf 32 3e 7e 27 e9 3d 89 c5 11 be 31 06 02 be
       0.17456043 0.11384486 -0.1423551 -0.12697674
000280 47 84 0d 3e 9c 36 76 bd 1b 9b b7 3c c9 18 df bd
       0.13819991 -0.060110673 0.022412827 -0.10893399
000290 49 a5 04 3d 9a d5 58 bd 13 da 52 3b f3 16 fd bd
       0.03238419 -0.05293808 0.003217344 -0.12357893
0002a0 2d 22 95 bd 66 f0 6a bd b2 dd 7d bd 3d 2b e8 3c
       -0.07281909 -0.057358168 -0.061979003 0.02834093
0002b0 74 3b f7 3d 48 09 ae bd dd 86 9d bc 7e f0 f6 bd
       0.12071887 -0.08497864 -0.019229347 -0.12057589
0002c0 35 4b 53 3d 26 ea ba 3d e1 a0 5b be cd a0 13 3e
       0.051585395 0.091266915 -0.21448089 0.1441681
0002d0 39 e2 4e bd 14 bd 9a 3c d8 a0 18 bd 65 d4 c8 bc
       -0.05050871 0.018888988 -0.037262768 -0.02451534
0002e0 47 61 49 bd e8 49 ec bc 5a 82 97 bc 67 55 33 be
       -0.049165037 -0.028843835 -0.018494774 -0.17513047
0002f0 27 4f 58 3b 57 bb 8c bd 99 c6 55 3d e1 89 5a be
       0.0033006163 -0.0687167 0.05219135 -0.21341659
000300 f4 a6 5e bd b6 5d 34 be b4 bd 8c bd 86 df 44 3b
       -0.054358438 -0.17613873 -0.068721205 0.0030040457
000310 28 48 d0 bd 2d 68 67 bd 43 b9 02 3e b3 37 ec 3d
       -0.10170013 -0.056495834 0.12765984 0.11534061
000320 4e 49 ed bb df 0f c4 3c 46 0f 33 be 33 d4 76 3d
       -0.0072414046 0.02393335 -0.17486295 0.060260963
000330 8a 9b 03 3d a9 db 7a bc bc e5 9c bd 7e 23 f9 3c
       0.032130755 -0.01531116 -0.07661006 0.030412432
000340 78 84 88 be 7b bb 4d bd 9b bf 94 bc aa 63 23 3c
       -0.26663566 -0.050227623 -0.01815777 0.009972492
000350 b6 40 a9 bc f0 a3 f6 bd 8d 92 8e be 41 b4 ae 3c
       -0.02066074 -0.12042987 -0.27846184 0.021326186
000360 b3 06 3b 3b 9b 12 84 3d ac 9b 14 bd 92 9e e0 bd
       0.0028537929 0.06448861 -0.036281273 -0.10967745
000370 9e 24 66 ba f8 7d 8d 3b 21 d3 4d bd ec 8b 51 3c
       -0.000877926 0.004317995 -0.050250176 0.012789708
000380 78 a9 02 be 76 ea 37 be fe bb 28 3d 5b 8f 58 bd
       -0.1275996 -0.17960533 0.04119491 -0.05287109
000390 e9 52 a7 bd 26 93 bb 3d 2b e2 0c bc 2d 71 83 bd
       -0.08170111 0.09158926 -0.0085988445 -0.06418071
0003a0 ea e4 2d be 50 e8 d9 bd 3e 84 0a be ea c8 2a bd
       -0.16981855 -0.10640013 -0.13527009 -0.041695513
0003b0 d9 05 87 bd 1d 11 3e 3d cb 88 49 3e e1 31 9c bd
       -0.06592912 0.04640304 0.19681089 -0.07626701
0003c0 b9 2c 32 be 98 12 f3 3c 17 59 90 bd ef 5b 7f 3b
       -0.17399873 0.029671952 -0.070482425 0.0038964709
0003d0 c8 36 36 3e b5 c2 6b bd 29 be 10 3e b0 e1 ab 3c
       0.17794335 -0.057558734 0.1413504 0.02098164
0003e0 7e eb 10 3d 8d be 67 3d 05 81 d0 bd 06 2f 22 be
       0.035380833 0.056578208 -0.101808585 -0.1583825
0003f0 d1 8e 3f bb d8 7e 0a bd c3 1f 63 be ab 01 8b 3d
       -0.0029229412 -0.033812374 -0.22180085 0.067874275

convs.1.att_src f4 [1, 1, 7]
000000 dd 6a ab be 5a 1f 13 3e 86 12 cf bd 73 04 0c be
       -0.33479968 0.14367428 -0.10110955 -0.13673572
000010 19 ac e2 be 75 2b c0 3e b1 dc 60 bd
       -0.44271925 0.37533155 -0.054897968

convs.1.att_dst f4 [1, 1, 7]
000000 d2 58 06 be 78 24 51 be 56 9f 1c be a3 21 af 3c
       -0.1311982 -0.20424068 -0.15295157 0.021378344
000010 cb 08 00 be 21 dc e8 3d 61 de 3c be
       -0.12503354 0.11370111 -0.18444206

convs.1.bias f4 [7]
000000 c5 7c 9a bd 42 64 94 be 98 42 83 bd c9 c2 5e 3e
       -0.07543329 -0.2898274 -0.06409186 0.21753992
000010 8c 39 00 be 5f a6 89 3e 93 13 4d be
       -0.12521952 0.26884744 -0.20026998

convs.1.lin_src.weight f4 [7, 16]
000000 20 0c 5d be d5 04 c4 be 16 2b 9b 3e 37 28 d1 be
       -0.21586657 -0.38284937 0.3030631 -0.40850994
000010 63 9d f6 be ed 5f 0c bf c4 bc ef be a5 09 3b bf
       -0.48166952 -0.5483387 -0.46823704 -0.7306159
000020 c4 b3 05 bf 4e c6 f7 3e 54 6f 30 3f da 3a 22 bf
       -0.52227426 0.48393482 0.68919873 -0.6337105
000030 e8 ac 05 3e 46 d8 2f bf 38 d4 73 3e 6c 43 0e 3f
       0.1305424 -0.6868938 0.23811424 0.5557163
000040 c2 4f 12 bf 68 be 11 3f c8 69 49 3f a3 40 b4 3e
       -0.5715295 0.5693116 0.78677034 0.35205564
000050 7a 1a e2 be 13 93 95 3e c9 cd 03 bf 98 09 9d 3e
       -0.44160825 0.2921377 -0.5148588 0.30671382
000060 6f 56 b6 3e fd e2 0d bf 4b 11 48 3f 76 bd dd 3e
       0.3561282 -0.5542448 0.78151387 0.4330861
000070 5a 80 3c bf 77 fd f4 3e 8b 74 dd be 6d 13 0c 3f
       -0.7363335 0.47849628 -0.43252978 0.5471714
000080 46 93 28 3f 93 1a 5b be 2d 03 f8 be 43 22 cc be
       0.6584972 -0.21396856 -0.48439923 -0.3986989
000090 93 72 cd be 69 82 d8 3e 27 27 07 3f 18 f0 06 3f
       -0.40126476 0.42286995 0.52794117 0.52710104
0000a0 be 60 14 bf ef dc b6 be fc 43 89 3e 33 22 33 bf
       -0.57960117 -0.35715434 0.2680968 -0.6997406
0000b0 db 04 3d bf 99 3e 70 3e d6 95 15 bf f2 30 06 bf
       -0.73835534 0.23461379 -0.58431756 -0.52418435
0000c0 fe a6 11 3f 9c 6c 32 3f c9 2d 0e 3f 3a c3 e7 be
       0.56895435 0.69696975 0.5553861 -0.45266134
0000d0 ce 1c 8f 3d 9a ec fe be 8c 2e 14 bf 37 39 8a 3e
       0.06987916 -0.49789888 -0.57883525 0.26996776
0000e0 b7 1c 11 3f c1 11 6f 3c f7 16 d3 be 66 88 28 3f
       0.5668444 0.014591635 -0.41228458 0.6583313
0000f0 72 a2 9d 3e 67 33 07 bf a8 ef 2d bf 55 86 0f bf
       0.30787998 -0.5281281 -0.6794381 -0.5606435
000100 46 e7 cd be 7f 8c d8 3e 8b 15 8e be 1b 87 38 3f
       -0.4021551 0.4229469 -0.2775081 0.72081155
000110 b1 76 7b be de d9 1b 3e 3f 8c 23 3f 1c d4 1b be
       -0.24556996 0.15219828 0.63885874 -0.15217632
000120 5e bc 70 3e 83 6e cf 3e 86 22 d5 be 5c eb 30 3f
       0.23509356 0.40514 -0.41627902 0.6910913
000130 a9 f5 5a 3d 99 e1 10 3f ea 49 2b 3f d2 6d 6c 3e
       0.053456936 0.56594235 0.6690966 0.23088768
000140 63 47 ae 3e 94 76 21 3d 9d 3b 7b be fd d6 17 3f
       0.3403884 0.039419726 -0.2453446 0.5931242
000150 c2 1e e9 3e 53 e9 08 bf 38 c4 b7 bd ae a6 3f bf
       0.4553128 -0.53481025 -0.08972973 -0.7486371
000160 46 f6 d2 be f4 2e 2a 3c 33 e8 a8 be ac 7b 2f be
       -0.41203517 0.010387171 -0.32989654 -0.17137021
000170 2b 95 4b be 36 52 1f bf 12 06 28 3f d1 60 83 be
       -0.19881122 -0.6223482 0.6563426 -0.25659803
000180 41 08 2c 3e 76 33 23 bf 2b a8 9e be da 33 0f 3f
       0.16800024 -0.637504 -0.30987677 0.55938494
000190 da 38 f0 be 85 44 4a bf eb d9 40 bf 73 20 96 3e
       -0.46918374 -0.790108 -0.75332516 0.29321632
0001a0 9b ce 08 3f c5 33 03 bf 6d bb a3 be b5 d2 09 bf
       0.53440255 -0.5125087 -0.31978932 -0.5383714
0001b0 4b 06 05 bf 58 7d ae 3e 83 e4 14 bf de 3c 05 3f
       -0.5196273 0.34080005 -0.5816118 0.52046

convs.1.lin_dst.weight f4 [7, 16]
000000 20 0c 5d be d5 04 c4 be 16 2b 9b 3e 37 28 d1 be
       -0.21586657 -0.38284937 0.3030631 -0.40850994
000010 63 9d f6 be ed 5f 0c bf c4 bc ef be a5 09 3b bf
       -0.48166952 -0.5483387 -0.46823704 -0.7306159
000020 c4 b3 05 bf 4e c6 f7 3e 54 6f 30 3f da 3a 22 bf
       -0.52227426 0.48393482 0.68919873 -0.6337105
000030 e8 ac 05 3e 46 d8 2f bf 38 d4 73 3e 6c 43 0e 3f
       0.1305424 -0.6868938 0.23811424 0.5557163
000040 c2 4f 12 bf 68 be 11 3f c8 69 49 3f a3 40 b4 3e
       -0.5715295 0.5693116 0.78677034 0.35205564
000050 7a 1a e2 be 13 93 95 3e c9 cd 03 bf 98 09 9d 3e
       -0.44160825 0.2921377 -0.5148588 0.30671382
000060 6f 56 b6 3e fd e2 0d bf 4b 11 48 3f 76 bd dd 3e
       0.3561282 -0.5542448 0.78151387 0.4330861
000070 5a 80 3c bf 77 fd f4 3e 8b 74 dd be 6d 13 0c 3f
       -0.7363335 0.47849628 -0.43252978 0.5471714
000080 46 93 28 3f 93 1a 5b be 2d 03 f8 be 43 22 cc be
       0.6584972 -0.21396856 -0.48439923 -0.3986989
000090 93 72 cd be 69 82 d8 3e 27 27 07 3f 18 f0 06 3f
       -0.40126476 0.42286995 0.52794117 0.52710104
0000a0 be 60 14 bf ef dc b6 be fc 43 89 3e 33 22 33 bf
       -0.57960117 -0.35715434 0.2680968 -0.6997406
0000b0 db 04 3d bf 99 3e 70 3e d6 95 15 bf f2 30 06 bf
       -0.73835534 0.23461379 -0.58431756 -0.52418435
0000c0 fe a6 11 3f 9c 6c 32 3f c9 2d 0e 3f 3a c3 e7 be
       0.56895435 0.69696975 0.5553861 -0.45266134
0000d0 ce 1c 8f 3d 9a ec fe be 8c 2e 14 bf 37 39 8a 3e
       0.06987916 -0.49789888 -0.57883525 0.26996776
0000e0 b7 1c 11 3f c1 11 6f 3c f7 16 d3 be 66 88 28 3f
       0.5668444 0.014591635 -0.41228458 0.6583313
0000f0 72 a2 9d 3e 67 33 07 bf a8 ef 2d bf 55 86 0f bf
       0.30787998 -0.5281281 -0.6794381 -0.5606435
000100 46 e7 cd be 7f 8c d8 3e 8b 15 8e be 1b 87 38 3f
       -0.4021551 0.4229469 -0.2775081 0.72081155
000110 b1 76 7b be de d9 1b 3e 3f 8c 23 3f 1c d4 1b be
       -0.24556996 0.15219828 0.63885874 -0.15217632
000120 5e bc 70 3e 83 6e cf 3e 86 22 d5 be 5c eb 30 3f
       0.23509356 0.40514 -0.41627902 0.6910913
000130 a9 f5 5a 3d 99 e1 10 3f ea 49 2b 3f d2 6d 6c 3e
       0.053456936 0.56594235 0.6690966 0.23088768
000140 63 47 ae 3e 94 76 21 3d 9d 3b 7b be fd d6 17 3f
       0.3403884 0.039419726 -0.2453446 0.5931242
000150 c2 1e e9 3e 53 e9 08 bf 38 c4 b7 bd ae a6 3f bf
       0.4553128 -0.53481025 -0.08972973 -0.7486371
000160 46 f6 d2 be f4 2e 2a 3c 33 e8 a8 be ac 7b 2f be
       -0.41203517 0.010387171 -0.32989654 -0.17137021
000170 2b 95 4b be 36 52 1f bf 12 06 28 3f d1 60 83 be
       -0.19881122 -0.6223482 0.6563426 -0.25659803
000180 41 08 2c 3e 76 33 23 bf 2b a8 9e be da 33 0f 3f
       0.16800024 -0.637504 -0.30987677 0.55938494
000190 da 38 f0 be 85 44 4a bf eb d9 40 bf 73 20 96 3e
       -0.46918374 -0.790108 -0.75332516 0.29321632
0001a0 9b ce 08 3f c5 33 03 bf 6d bb a3 be b5 d2 09 bf
       0.53440255 -0.5125087 -0.31978932 -0.5383714
0001b0 4b 06 05 bf 58 7d ae 3e 83 e4 14 bf de 3c 05 3f
       -0.5196273 0.34080005 -0.5816118 0.52046
