gnn_checkpoints/gat_pubmed.pt (torch, 35629 bytes, 10 tensors)

convs.0.att_src f4 [1, 8, 2]
0.5382322 -0.44861192 0.21125907 -0.35295397 0.3760572 -0.4849047 0.700191 -0.4332845
-0.34630704 0.8103711 0.11988873 -0.25726536 0.62976575 -0.42274907 0.4174279 0.09627738
00000000: 96c9 093f 76b0 e5be 4c54 583e 62b6 b4be
00000010: 928a c03e 6e45 f8be b83f 333f 77d7 ddbe
00000020: 284f b1be 7b74 4f3f 3988 f53d 49b8 83be
00000030: 5438 213f 9172 d8be 1cb9 d53e 132d c53d

convs.0.att_dst f4 [1, 8, 2]
0.283957 -0.6181773 -0.4840611 -0.26967192 -0.35931033 -0.065604225 0.38481435 -0.026832368
-0.28074896 -0.1897659 0.5100089 -0.4474857 0.36234865 -0.37653172 0.121833675 0.42495936
00000000: d062 913e de40 1ebf dbd6 f7be 7012 8abe
00000010: 86f7 b7be 825b 86bd 6306 c53e 8ecf dbbc
00000020: 54be 8fbe fe51 42be f18f 023f d81c e5be
00000030: c385 b93e c4c8 c0be ef83 f93d 4694 d93e

convs.0.bias f4 [16]
0.029242205 -0.13527396 -0.063335896 -0.042219292 -0.09055605 -0.07092853 -0.070910335 0.015962707
-0.018396353 0.02699152 0.040414333 -0.099648364 0.07545555 -0.034523927 0.08819516 0.03035165
00000000: 598d ef3c 4285 0abe 40b6 81bd 23ee 2cbd
00000010: 7375 b9bd fa42 91bd 7039 91bd 39c4 823c
00000020: f3b3 96bc 521d dd3c 8089 253d 7114 ccbd
00000030: 7088 9a3d f668 0dbd aa9f b43d 06a4 f83c

convs.0.lin_src.weight f4 [16, 500]
-0.046228103 -0.15613687 -0.0064236172 -0.01206776 0.05687407 0.13839601 -0.015449156 0.0076144002
0.108987994 -0.05674796 0.06632024 -0.07244382 0.20491545 -0.17253518 -0.014395636 -0.05121893
0.018359173 0.035092734 0.087941274 0.028103871 -0.07344186 0.1868576 -0.047460824 -0.012362452
0.0010428756 -0.06595033 -0.19490258 -0.29280722 -0.009850543 -0.07280592 -0.042976 0.15653236
-0.008102207 -0.043922663 -0.19064784 -0.093871534 0.009150995 -0.050182156 -0.03383894 -0.011178376
0.070347 -0.052041564 -0.0028245957 -0.06272752 0.008663753 0.11657254 -0.051139385 0.036274683
0.010226903 -0.0023431028 -0.26556522 0.10823519 -0.072263665 -0.016328864 -0.18858354 -0.09787671
-0.0053437473 0.05296238 -0.084261075 0.1353516 -0.15776327 0.013450838 0.12864001 -0.03076907
0.018848741 -0.0042378465 0.14695852 -0.079738826 0.073729 0.01658855 0.11730614 -0.045096774
0.15038179 -0.1495486 -0.020911943 -0.050694652 0.21957667 -0.031000841 0.22163661 -0.0015656129
0.015920715 -0.15056084 0.035282657 0.04601219 -0.017340643 -0.1504988 0.22499281 0.062122945
-0.14725338 0.08106389 -0.11212069 -0.09043815 -0.17157443 -0.06553057 0.062384453 0.0076934216
0.102171384 -0.13271825 -0.021871442 0.03341518 0.11055768 -0.088707544 -0.16934736 0.055149585
0.108468615 0.003605807 -0.048912354 0.003820236 -0.04607671 -0.018702827 -0.059303485 0.03650778
-0.11426029 -0.010178911 0.019867323 0.07293327 -0.11787639 0.017866137 -0.17896512 -0.2119412
0.00930654 0.046490476 0.056598075 -0.16802509 -0.031941656 0.06811344 0.0020168014 0.026922565
0.18990034 -0.15663931 -0.0041173515 -0.1363059 -0.083481215 0.021092838 -0.018645093 0.19025427
0.12863144 -0.14060968 0.100219145 -0.04976725 0.0011588234 -0.16492431 0.061580528 -0.14769092
-0.19153018 0.19413061 -0.0451076 -0.07550949 -0.17110191 0.028070547 -0.037911974 -0.005220327
-0.12756391 -0.05526924 0.16422984 -0.04029825 0.09041415 -0.027209328 -0.0981104 -0.047085505
-0.07477663 -0.041640848 0.0007629675 0.050384175 -0.16706532 -0.118659474 -0.06393516 0.05586639
-0.14197552 -0.13609728 0.24351075 -0.120732635 -0.00781772 -0.04533476 0.09203548 0.059045352
-0.029220818 -0.035063557 0.11187362 0.0013312718 -0.099735335 0.1000048 0.13731343 -0.105444804
-0.08676064 0.12231297 -0.021458624 -0.042249687 -0.10668023 -0.228857 0.021617068 -0.033422895
-0.012397519 -0.0075652413 0.2739292 0.12347152 -0.09259173 0.06902518 -0.22493944 -0.018879611
-0.06153491 -0.004567462 -0.04642996 -0.03797715 0.04159887 0.06975783 -0.026628854 0.03578943
-0.083751604 0.01148788 0.05044577 -0.089753546 -0.022685027 -0.073400036 -0.05215357 0.004903497
0.0032609256 0.007213127 -0.011693281 -0.0736308 0.0714095 0.2143169 0.03677091 -0.0031961158
0.007262043 -0.09596104 -0.21675827 0.18275091 0.030174764 -0.0011964656 0.04514406 -0.06841277
-0.05549955 0.23916313 -0.0112698 -0.14477022 -0.028721562 -0.019565936 0.0860815 -0.19915427
0.01296972 -0.21038157 0.08218888 -0.035753332 -0.15077087 0.041153 -0.12289546 0.058920387
-0.04915569 -0.013172267 0.1600367 0.03195954 -0.011423899 -0.24142934 0.039821208 -0.078869596
00000000: ae59 3dbd 58e2 1fbe 357d d2bb dbb7 45bc
00000010: c9f4 683d afb7 0d3e 751e 7dbc 3882 f93b
00000020: 1935 df3d 8d70 68bd e8d2 873d 6d5d 94bd
00000030: 5bd5 513e 10ad 30be acdb 6bbc f1ca 51bd
00000040: fa65 963c 66bd 0f3d 8e1a b43d 173a e63c
00000050: b068 96bd 9957 3f3e 4866 42bd e28b 4abc
00000060: 19b1 883a f710 87bd 8b94 47be d4ea 95be
00000070: 2c64 21bc 451b 95bd 9a07 30bd 054a 203e
00000080: 1fbf 04bc 40e8 33bd 3039 43be b83f c0bd
00000090: 0eee 153c ce8b 4dbd b39a 0abd 8225 37bc
000000a0: 1712 903d 8929 55bd da1c 39bb 4977 80bd
000000b0: 6af2 0d3c 95bd ee3d 8877 51bd c394 143d
000000c0: bd8e 273c be8e 19bb 2af8 87be 69aa dd3d
000000d0: f9fe 93bd 1cc4 85bc 0b1c 41be 9673 c8bd
000000e0: 9a1a afbb 15ef 583d 1291 acbd 9c99 0a3e
000000f0: b28c 21be e760 5c3c 35ba 033e 6b0f fcbc
00000100: ad68 9a3c a2dd 8abb 4b7c 163e 1c4e a3bd
00000110: 3bff 963d b6e4 873c 343e f03d 65b7 38bd
00000120: affd 193e 4523 19be 864f abbc 32a5 4fbd
00000130: b5d8 603e 7af5 fdbc b5f4 623e 4035 cdba
00000140: 296c 823c 9f2c 1abe 8c84 103d 4777 3c3d
00000150: f70d 8ebc 5c1c 1abe 8464 663e a174 7e3d
00000160: 97c9 16be d304 a63d 889f e5bd a337 b9bd
00000170: 35b1 2fbe e434 86bd d786 7f3d 1919 fc3b
00000180: 3b3f d13d 4be7 07be bd2b b3bc 5bde 083d
00000190: 116c e23d 4dac b5bd 6569 2dbe 88e4 613d
000001a0: cb24 de3d 674f 6c3b 5258 48bd ed5c 7a3b
000001b0: efba 3cbd ac36 99bc 36e8 72bd 2f89 153d
000001c0: 4d01 eabd 72c5 26bc ccc0 a23c 0a5e 953d
000001d0: 2d69 f1bd 015c 923c a242 37be 1d07 59be
000001e0: 757a 183c cc6c 3e3d 62d3 673d c50e 2cbe
000001f0: 41d5 02bd 0f7f 8b3d 502c 043b b68c dc3c
00000200: 3c75 423e 0e66 20be d9ea 86bb c693 0bbe
00000210: 33f8 aabd e3ca ac3c 98bd 98bc 04d2 423e
00000220: f6b7 033e fcfb 0fbe b23f cd3d bed8 4bbd
00000230: a9e3 973a ebe1 28be dd3b 7c3d 4a3c 17be
00000240: 7d20 44be 2dca 463e bfc2 38bd b8a4 9abd
00000250: 5735 2fbe 34f4 e53c 9649 1bbd 470f abbb
00000260: 1da0 02be 0062 62bd de2b 283e c70f 25bd
00000270: 0e2b b93d 19e6 debc 1bee c8bd bbdc 40bd
00000280: 7d24 99bd 988f 2abd e201 483a a35f 4e3d
00000290: 2c13 2bbe bd03 f3bd 70f0 82bd 28d4 643d
000002a0: 0862 11be 165d 0bbe e25a 793e ac42 f7bd
000002b0: e515 00bc f1b0 39bd 197d bc3d 8ad9 713d
000002c0: 7f60 efbc ce9e 0fbd ff1d e53d 127e ae3a
000002d0: 0a42 ccbd 51cf cc3d e49b 0c3e 72f3 d7bd
000002e0: 90af b1bd 397f fa3d ffc9 afbc 020e 2dbd
000002f0: 2a7b dabd 7d59 6abe 4716 b13c 72e6 08bd
00000300: f71e 4bbc d8e5 f7bb 7340 8c3e a3de fc3d
00000310: bca0 bdbd 135d 8d3d 8656 66be 6aa9 9abc
00000320: 080c 7cbd a6aa 95bb 572d 3ebd ee8d 1bbd
00000330: 9463 2a3d 31dd 8e3d c124 dabc f097 123d
00000340: f685 abbd a937 3c3c 39a0 4e3d b5d0 b7bd
00000350: f3d5 b9bc c252 96bd fb9e 55bd 84ad a03b
00000360: 41b5 553b 185c ec3b 2d95 3fbc bfcb 96bd
00000370: 253f 923d e475 5b3e 189d 163d ed75 51bb
00000380: 6ff6 ed3b 3987 c4bd e1f5 5dbe 0e23 3b3e
00000390: 1131 f73c b9d2 9cba fae8 383d ff1b 8cbd
000003a0: 7f53 63bd 2ee7 743e f8a4 38bc a53e 14be
000003b0: 7b49 ebbc be48 a0bc 7f4b b03d 19ef 4bbe
000003c0: f37e 543c 446e 57be a552 a83d 1672 12bd
000003d0: ae63 1abe 0c90 283d 9db0 fbbd 8156 713d
000003e0: 7a57 49bd 7ed0 57bc a9e0 233e 02e8 023d
000003f0: 4e2b 3bbc 4139 77be 901b 233d 6286 a1bd

convs.0.lin_dst.weight f4 [16, 500]
-0.046228103 -0.15613687 -0.0064236172 -0.01206776 0.05687407 0.13839601 -0.015449156 0.0076144002
0.108987994 -0.05674796 0.06632024 -0.07244382 0.20491545 -0.17253518 -0.014395636 -0.05121893
0.018359173 0.035092734 0.087941274 0.028103871 -0.07344186 0.1868576 -0.047460824 -0.012362452
0.0010428756 -0.06595033 -0.19490258 -0.29280722 -0.009850543 -0.07280592 -0.042976 0.15653236
-0.008102207 -0.043922663 -0.19064784 -0.093871534 0.009150995 -0.050182156 -0.03383894 -0.011178376
0.070347 -0.052041564 -0.0028245957 -0.06272752 0.008663753 0.11657254 -0.051139385 0.036274683
0.010226903 -0.0023431028 -0.26556522 0.10823519 -0.072263665 -0.016328864 -0.18858354 -0.09787671
-0.0053437473 0.05296238 -0.084261075 0.1353516 -0.15776327 0.013450838 0.12864001 -0.03076907
0.018848741 -0.0042378465 0.14695852 -0.079738826 0.073729 0.01658855 0.11730614 -0.045096774
0.15038179 -0.1495486 -0.020911943 -0.050694652 0.21957667 -0.031000841 0.22163661 -0.0015656129
0.015920715 -0.15056084 0.035282657 0.04601219 -0.017340643 -0.1504988 0.22499281 0.062122945
-0.14725338 0.08106389 -0.11212069 -0.09043815 -0.17157443 -0.06553057 0.062384453 0.0076934216
0.102171384 -0.13271825 -0.021871442 0.03341518 0.11055768 -0.088707544 -0.16934736 0.055149585
0.108468615 0.003605807 -0.048912354 0.003820236 -0.04607671 -0.018702827 -0.059303485 0.03650778
-0.11426029 -0.010178911 0.019867323 0.07293327 -0.11787639 0.017866137 -0.17896512 -0.2119412
0.00930654 0.046490476 0.056598075 -0.16802509 -0.031941656 0.06811344 0.0020168014 0.026922565
0.18990034 -0.15663931 -0.0041173515 -0.1363059 -0.083481215 0.021092838 -0.018645093 0.19025427
0.12863144 -0.14060968 0.100219145 -0.04976725 0.0011588234 -0.16492431 0.061580528 -0.14769092
-0.19153018 0.19413061 -0.0451076 -0.07550949 -0.17110191 0.028070547 -0.037911974 -0.005220327
-0.12756391 -0.05526924 0.16422984 -0.04029825 0.09041415 -0.027209328 -0.0981104 -0.047085505
-0.07477663 -0.041640848 0.0007629675 0.050384175 -0.16706532 -0.118659474 -0.06393516 0.05586639
-0.14197552 -0.13609728 0.24351075 -0.120732635 -0.00781772 -0.04533476 0.09203548 0.059045352
-0.029220818 -0.035063557 0.11187362 0.0013312718 -0.099735335 0.1000048 0.13731343 -0.105444804
-0.08676064 0.12231297 -0.021458624 -0.042249687 -0.10668023 -0.228857 0.021617068 -0.033422895
-0.012397519 -0.0075652413 0.2739292 0.12347152 -0.09259173 0.06902518 -0.22493944 -0.018879611
-0.06153491 -0.004567462 -0.04642996 -0.03797715 0.04159887 0.06975783 -0.026628854 0.03578943
-0.083751604 0.01148788 0.05044577 -0.089753546 -0.022685027 -0.073400036 -0.05215357 0.004903497
0.0032609256 0.007213127 -0.011693281 -0.0736308 0.0714095 0.2143169 0.03677091 -0.0031961158
0.007262043 -0.09596104 -0.21675827 0.18275091 0.030174764 -0.0011964656 0.04514406 -0.06841277
-0.05549955 0.23916313 -0.0112698 -0.14477022 -0.028721562 -0.019565936 0.0860815 -0.19915427
0.01296972 -0.21038157 0.08218888 -0.035753332 -0.15077087 0.041153 -0.12289546 0.058920387
-0.04915569 -0.013172267 0.1600367 0.03195954 -0.011423899 -0.24142934 0.039821208 -0.078869596
00000000: ae59 3dbd 58e2 1fbe 357d d2bb dbb7 45bc
00000010: c9f4 683d afb7 0d3e 751e 7dbc 3882 f93b
00000020: 1935 df3d 8d70 68bd e8d2 873d 6d5d 94bd
00000030: 5bd5 513e 10ad 30be acdb 6bbc f1ca 51bd
00000040: fa65 963c 66bd 0f3d 8e1a b43d 173a e63c
00000050: b068 96bd 9957 3f3e 4866 42bd e28b 4abc
00000060: 19b1 883a f710 87bd 8b94 47be d4ea 95be
00000070: 2c64 21bc 451b 95bd 9a07 30bd 054a 203e
00000080: 1fbf 04bc 40e8 33bd 3039 43be b83f c0bd
00000090: 0eee 153c ce8b 4dbd b39a 0abd 8225 37bc
000000a0: 1712 903d 8929 55bd da1c 39bb 4977 80bd
000000b0: 6af2 0d3c 95bd ee3d 8877 51bd c394 143d
000000c0: bd8e 273c be8e 19bb 2af8 87be 69aa dd3d
000000d0: f9fe 93bd 1cc4 85bc 0b1c 41be 9673 c8bd
000000e0: 9a1a afbb 15ef 583d 1291 acbd 9c99 0a3e
000000f0: b28c 21be e760 5c3c 35ba 033e 6b0f fcbc
00000100: ad68 9a3c a2dd 8abb 4b7c 163e 1c4e a3bd
00000110: 3bff 963d b6e4 873c 343e f03d 65b7 38bd
00000120: affd 193e 4523 19be 864f abbc 32a5 4fbd
00000130: b5d8 603e 7af5 fdbc b5f4 623e 4035 cdba
00000140: 296c 823c 9f2c 1abe 8c84 103d 4777 3c3d
00000150: f70d 8ebc 5c1c 1abe 8464 663e a174 7e3d
00000160: 97c9 16be d304 a63d 889f e5bd a337 b9bd
00000170: 35b1 2fbe e434 86bd d786 7f3d 1919 fc3b
00000180: 3b3f d13d 4be7 07be bd2b b3bc 5bde 083d
00000190: 116c e23d 4dac b5bd 6569 2dbe 88e4 613d
000001a0: cb24 de3d 674f 6c3b 5258 48bd ed5c 7a3b
000001b0: efba 3cbd ac36 99bc 36e8 72bd 2f89 153d
000001c0: 4d01 eabd 72c5 26bc ccc0 a23c 0a5e 953d
000001d0: 2d69 f1bd 015c 923c a242 37be 1d07 59be
000001e0: 757a 183c cc6c 3e3d 62d3 673d c50e 2cbe
000001f0: 41d5 02bd 0f7f 8b3d 502c 043b b68c dc3c
00000200: 3c75 423e 0e66 20be d9ea 86bb c693 0bbe
00000210: 33f8 aabd e3ca ac3c 98bd 98bc 04d2 423e
00000220: f6b7 033e fcfb 0fbe b23f cd3d bed8 4bbd
00000230: a9e3 973a ebe1 28be dd3b 7c3d 4a3c 17be
00000240: 7d20 44be 2dca 463e bfc2 38bd b8a4 9abd
00000250: 5735 2fbe 34f4 e53c 9649 1bbd 470f abbb
00000260: 1da0 02be 0062 62bd de2b 283e c70f 25bd
00000270: 0e2b b93d 19e6 debc 1bee c8bd bbdc 40bd
00000280: 7d24 99bd 988f 2abd e201 483a a35f 4e3d
00000290: 2c13 2bbe bd03 f3bd 70f0 82bd 28d4 643d
000002a0: 0862 11be 165d 0bbe e25a 793e ac42 f7bd
000002b0: e515 00bc f1b0 39bd 197d bc3d 8ad9 713d
000002c0: 7f60 efbc ce9e 0fbd ff1d e53d 127e ae3a
000002d0: 0a42 ccbd 51cf cc3d e49b 0c3e 72f3 d7bd
000002e0: 90af b1bd 397f fa3d ffc9 afbc 020e 2dbd
000002f0: 2a7b dabd 7d59 6abe 4716 b13c 72e6 08bd
00000300: f71e 4bbc d8e5 f7bb 7340 8c3e a3de fc3d
00000310: bca0 bdbd 135d 8d3d 8656 66be 6aa9 9abc
00000320: 080c 7cbd a6aa 95bb 572d 3ebd ee8d 1bbd
00000330: 9463 2a3d 31dd 8e3d c124 dabc f097 123d
00000340: f685 abbd a937 3c3c 39a0 4e3d b5d0 b7bd
00000350: f3d5 b9bc c252 96bd fb9e 55bd 84ad a03b
00000360: 41b5 553b 185c ec3b 2d95 3fbc bfcb 96bd
00000370: 253f 923d e475 5b3e 189d 163d ed75 51bb
00000380: 6ff6 ed3b 3987 c4bd e1f5 5dbe 0e23 3b3e
00000390: 1131 f73c b9d2 9cba fae8 383d ff1b 8cbd
000003a0: 7f53 63bd 2ee7 743e f8a4 38bc a53e 14be
000003b0: 7b49 ebbc be48 a0bc 7f4b b03d 19ef 4bbe
000003c0: f37e 543c 446e 57be a552 a83d 1672 12bd
000003d0: ae63 1abe 0c90 283d 9db0 fbbd 8156 713d
000003e0: 7a57 49bd 7ed0 57bc a9e0 233e 02e8 023d
000003f0: 4e2b 3bbc 4139 77be 901b 233d 6286 a1bd

convs.1.att_src f4 [1, 1, 3]
-0.24041615 -0.014530678 -0.06827082
00000000: a72f 76be 1512 6ebc 92d1 8bbd

convs.1.att_dst f4 [1, 1, 3]
-0.29284894 -0.42450503 -0.59084994
00000000: 4cf0 95be b958 d9be f141 17bf

convs.1.bias f4 [3]
-0.036297075 0.07987077 -0.06090063
00000000: 3eac 14bd 4993 a33d f072 79bd

convs.1.lin_src.weight f4 [3, 16]
-0.19075592 -0.25922766 -0.025019914 -0.3554313 -0.58152974 -0.46244967 -0.36219606 -0.5717577
-0.37097263 0.25747663 0.5774184 -0.48043075 0.1681085 -0.46552774 0.19668943 0.44395295
-0.41060537 0.50804156 0.65458626 0.22104876 0.17481066 -0.2012386 -0.44884348 0.1893732
0.31605494 -0.46146908 0.6354716 0.2056013 -0.6222748 0.12019859 -0.56034964 0.43944833
0.35823512 -0.22446565 -0.18254367 0.007911699 -0.39793867 0.34532037 0.31572455 0.4601848
-0.29102245 -0.3816081 -0.27008545 -0.544719 -0.58687186 0.32608402 -0.4188465 -0.34086338
00000000: 8555 43be 7db9 84be 90f6 ccbc 17fb b5be
00000010: 22df 14bf 34c6 ecbe c371 b9be b65e 12bf
00000020: 20f0 bdbe fad3 833e b1d1 133f 05fb f5be
00000030: a224 2c3e a759 eebe f468 493e cd4d e33e
00000040: de3a d2be 030f 023f f792 273f 9b5a 623e
00000050: 9101 333e 7e11 4ebe d0ce e5be 0ceb 413e
00000060: f4d1 a13e ad45 ecbe 44ae 223f 2689 523e
00000070: 674d 1fbf ae2a f63d 1373 0fbf 5fff e03e
00000080: 986a b73e 53da 65be baec 3abe 12a0 013c
00000090: 9ebe cbbe d5cd b03e a6a6 a13e 589d eb3e
000000a0: e500 95be 2362 c3be a448 8abe b472 0bbf
000000b0: 3c3d 16bf 7cf4 a63e 0c73 d6be a585 aebe

convs.1.lin_dst.weight f4 [3, 16]
-0.19075592 -0.25922766 -0.025019914 -0.3554313 -0.58152974 -0.46244967 -0.36219606 -0.5717577
-0.37097263 0.25747663 0.5774184 -0.48043075 0.1681085 -0.46552774 0.19668943 0.44395295
-0.41060537 0.50804156 0.65458626 0.22104876 0.17481066 -0.2012386 -0.44884348 0.1893732
0.31605494 -0.46146908 0.6354716 0.2056013 -0.6222748 0.12019859 -0.56034964 0.43944833
0.35823512 -0.22446565 -0.18254367 0.007911699 -0.39793867 0.34532037 0.31572455 0.4601848
-0.29102245 -0.3816081 -0.27008545 -0.544719 -0.58687186 0.32608402 -0.4188465 -0.34086338
00000000: 8555 43be 7db9 84be 90f6 ccbc 17fb b5be
00000010: 22df 14bf 34c6 ecbe c371 b9be b65e 12bf
00000020: 20f0 bdbe fad3 833e b1d1 133f 05fb f5be
00000030: a224 2c3e a759 eebe f468 493e cd4d e33e
00000040: de3a d2be 030f 023f f792 273f 9b5a 623e
00000050: 9101 333e 7e11 4ebe d0ce e5be 0ceb 413e
00000060: f4d1 a13e ad45 ecbe 44ae 223f 2689 523e
00000070: 674d 1fbf ae2a f63d 1373 0fbf 5fff e03e
00000080: 986a b73e 53da 65be baec 3abe 12a0 013c
00000090: 9ebe cbbe d5cd b03e a6a6 a13e 589d eb3e
000000a0: e500 95be 2362 c3be a448 8abe b472 0bbf
000000b0: 3c3d 16bf 7cf4 a63e 0c73 d6be a585 aebe
