gnn_checkpoints/gcn_pubmed.pt (torch, 33759 bytes, 4 tensors)

layers.0.weight f4 [500, 16]
000000 82 7b 1f 3e 02 5a a4 bd 61 19 6b 3d a0 9d 16 3d
       0.15574458 -0.0802498 0.05739725 0.036771417
000010 44 5c b5 bd 6e d9 2b bd ef 70 1d 3d 40 df fd bd
       -0.08855489 -0.041955404 0.03843778 -0.12396097
000020 e5 e0 59 3d 1f aa b1 bd 9d 13 0e 3d d3 c2 4c be
       0.05319299 -0.08675026 0.034686673 -0.19996195
000030 51 29 3d 3e 6f 8b 00 3e 23 f9 e1 bb 17 81 0d be
       0.18472792 0.1255319 -0.0068961545 -0.13818775
000040 bf 13 3c 3e c9 ad 08 3e 2d 18 20 be a9 29 a1 bd
       0.18366908 0.13347544 -0.15634222 -0.07869274
000050 30 e1 47 3e 61 fb 1a 3d f3 16 3d 3d 03 a6 89 bc
       0.19519496 0.03783739 0.046164464 -0.016802793
000060 ec d4 88 bc 1f 7c 8d 3c 95 c5 e5 bc 78 a8 e5 bd
       -0.016703092 0.0172711 -0.028048316 -0.112137735
000070 2e 2b 1d bd 6f 50 22 bc f1 6e ed bc 87 c0 00 3e
       -0.038371257 -0.009906872 -0.028983565 0.12573443
000080 10 b1 6d 3d c9 3b 37 3e 96 e9 ee bd 35 03 fc 3c
       0.058030188 0.178939 -0.11665647 0.030763248
000090 88 30 fb 3c cc 3a 07 bd ff 7f 96 bc 8c 4f 9a 3d
       0.03066279 -0.033015057 -0.01837158 0.075347036
0000a0 00 89 02 3d 23 6a 14 3c 38 50 ea 3b 93 d0 00 bd
       0.031868935 0.009058508 0.007150676 -0.031448912
0000b0 ac 2b 16 3d 09 7d 5a bd e4 c9 f9 bc f8 06 1a 3c
       0.036662742 -0.0533419 -0.030491777 0.009401076
0000c0 7f 14 fd ba 98 c6 3d bd 03 f9 10 3e 43 c9 25 bc
       -0.0019308476 -0.046331972 0.1415749 -0.010118785
0000d0 66 01 b2 bd 21 55 29 3d 5c c6 a2 bd 65 28 c0 bd
       -0.08691673 0.04134095 -0.0794799 -0.09382705
0000e0 b6 c9 14 bd 9c 4f b4 bd 03 05 2c 3d c1 bf 87 3d
       -0.03632518 -0.08804247 0.041996967 0.06628371
0000f0 3c 50 37 3d 42 65 ca 3d 43 ce b0 3c c7 36 39 bd
       0.04475425 0.09882595 0.021582728 -0.045218255
000100 3e 65 31 be 3e d6 1b be 96 a0 31 3e 26 9d 3e 3d
       -0.17323777 -0.15218446 0.17346415 0.046536587
000110 74 b5 5e 3d e2 7b d8 3c 50 87 d7 3d cd 5f af 3d
       0.054372266 0.02642626 0.10523856 0.085631944
000120 63 4f 86 bd 8c 1b 53 3d c3 80 74 bd 30 67 d6 3d
       -0.065581106 0.051539943 -0.05969311 0.104689
000130 f3 7a 35 3d 18 35 d9 3d 77 15 ae 3b fc 24 9c bd
       0.044306707 0.1060583 0.0053126174 -0.07624242
000140 ad 7b 97 bd 04 21 aa 3d c6 57 08 bd 1d 7f bd bd
       -0.07396636 0.083070785 -0.033286832 -0.092527606
000150 2e 38 20 3d b3 4f cb bc 94 0f 95 bd df 56 f9 3d
       0.039116077 -0.024818277 -0.07278362 0.121747725
000160 36 dc 0c 3c 87 c9 f7 3d a9 4a 2b be 20 87 cc 3d
       0.008597424 0.12098985 -0.167277 0.099867105
000170 e6 1e 3d bd 5d d1 cf bd c4 22 9d 3b f0 37 05 be
       -0.046172045 -0.10147355 0.004795404 -0.1300962
000180 96 a8 89 3c 14 65 91 bd 4a fb 59 bd f7 66 d4 3d
       0.01680402 -0.07099357 -0.053218164 0.103712015
000190 55 7a c5 bd 9c c0 a2 bd c0 a0 9e 3c 62 7d 26 bd
       -0.096424736 -0.079468936 0.019363761 -0.040646918
0001a0 87 b9 d5 bc 88 b7 22 bd 3f c8 47 3e 80 c0 29 bd
       -0.026089443 -0.03972581 0.19509982 -0.041443348
0001b0 d3 55 1a bd 9b 16 ec 3d 12 0b 7d bc 92 70 24 bb
       -0.037679505 0.11527749 -0.015444534 -0.0025091511
0001c0 8e bc 67 bd c5 6f d8 3c 41 e6 d5 3c ef ee e1 bc
       -0.056576304 0.026420483 0.02611077 -0.027579753
0001d0 ad 18 e8 3d e2 9c 15 be 74 70 db bd 5d 4e 22 3e
       0.113328315 -0.14610627 -0.10714808 0.15850206
0001e0 55 18 dc 3b 53 da 06 3c 54 9f a9 3d 75 d8 07 3e
       0.006716768 0.0082307635 0.082823426 0.13266166
0001f0 dc 50 04 3e 77 0c 42 bd 57 15 a9 3c 74 e9 79 bb
       0.1292147 -0.04737517 0.020640058 -0.0038133534
000200 d2 26 9f bd f9 79 55 be 87 94 5b 3e ad 76 0e be
       -0.07771076 -0.2084731 0.21443377 -0.13912459
000210 fe 1f fa bd 6a 59 15 3d ed 76 fd 3d 0e b9 1a be
       -0.12213133 0.036462225 0.12376199 -0.15109655
000220 00 e0 fc bb a4 5b 83 bd ee 20 06 3e d4 60 82 bd
       -0.0077171326 -0.064139634 0.13098499 -0.06366125
000230 62 dd 10 3e c4 97 54 3d 71 20 66 bc 38 86 4e be
       0.14146951 0.051902547 -0.014045821 -0.20168388
000240 7d 15 d0 bd 15 d4 37 3d 7e c2 6f bd cc 88 1b 3d
       -0.101603486 0.04487999 -0.05853509 0.037972257
000250 e2 98 b3 3c e7 01 95 bd d8 02 00 bc 66 b5 ee 3b
       0.021923486 -0.072757535 -0.007813178 0.007284808
000260 5f 15 e1 ba 55 15 e6 3c 0c b4 cd bd ec ad 2f be
       -0.0017172507 0.028086344 -0.10044107 -0.1715619
000270 c0 4c 2a bc 1a 96 ca 3d 69 94 9f bc 84 7c a6 3d
       -0.010394275 0.09891911 -0.019479947 0.08129218
000280 0f 64 7d 3d e9 64 31 3d cd 1e f8 bc 5d e0 1e be
       0.061863 0.043309126 -0.030288124 -0.15515275
000290 14 a7 19 3c 4d 4b 1a 3c 81 f7 97 3c 8b 4f 3d 3e
       0.009378213 0.009417367 0.018550636 0.18487374
0002a0 a4 cf 88 bd f2 32 fa 3d 8b 2c 5e 3c b6 72 c9 bc
       -0.06680229 0.12216748 0.013560425 -0.024590831
0002b0 21 4f be bd 16 32 3d be f4 eb b1 bd 8d 5d e4 bd
       -0.092924364 -0.18476138 -0.086875826 -0.11150656
0002c0 5a 33 27 3e db 45 e3 3d 05 a3 0c 3d 4d bb a1 3c
       0.16328183 0.11097308 0.034335155 0.019742632
0002d0 c6 5c 0f 3e 97 17 42 bc a4 a8 35 3d a3 a3 73 bd
       0.14000234 -0.011846445 0.04435028 -0.059482228
0002e0 7e 05 6a bd ad 22 54 3d 03 b0 cb 3c 87 4c d1 bd
       -0.057134144 0.051790882 0.024864202 -0.102196746
0002f0 bc 29 ab 3d 41 72 51 bd 0d d1 04 bc 46 3b 28 3e
       0.083575696 -0.05113435 -0.008106482 0.16428861
000300 30 39 a8 3b bf ed cb 3d d3 07 09 3c d3 1f 32 bd
       0.0051337704 0.09957456 0.008363682 -0.04348738
000310 0e ad ab bb 89 63 74 bd 2b 97 b8 bc fc de ac 3d
       -0.0052391356 -0.059665237 -0.02253302 0.084409684
000320 f7 5d ab 3c ea 5f 0c 3e 34 d6 27 be e8 fd 4f 3e
       0.02091883 0.13708463 -0.16390306 0.20311701
000330 9b ee 73 bd 63 39 13 3c 8a 9c d6 3c 14 04 05 bd
       -0.059553724 0.00898585 0.02619769 -0.032474592
000340 4e 0c 46 3e 20 f3 12 3e 4a 19 15 bd 79 c7 7d bd
       0.19340631 0.14350557 -0.03640107 -0.06195781
000350 90 ca 83 bc 80 74 17 be db 1e 96 bd d3 8a 8a 3b
       -0.0160878 -0.14790535 -0.07330104 0.004227975
000360 43 4d 02 bd e7 45 8b bd 38 bd 1a 3e d1 c3 8f be
       -0.031811964 -0.06800442 0.15111244 -0.28079084
000370 a2 87 18 bc c7 f1 84 3d cf 7f 8b bc 94 52 e0 3d
       -0.009309681 0.06491428 -0.017028717 0.109532505
000380 24 d1 6f 3e 90 b0 7a 3c 15 6f 29 3e 96 6c 22 bb
       0.23419625 0.015300885 0.1654628 -0.002478396
000390 67 32 43 be 29 6d 06 bd ea 38 30 bd e1 4d 7c be
       -0.19062196 -0.032818947 -0.043023027 -0.24639083
0003a0 01 08 a4 3c ec c0 f8 bc f8 68 c4 3d ab f8 c0 bd
       0.020023348 -0.03036543 0.09590334 -0.0942243
0003b0 1f 0c 67 3e c3 65 22 3e 0a 1e 58 bd 20 3e 13 bd
       0.22563218 0.15859132 -0.052763022 -0.03594792
0003c0 b5 37 b9 3c 48 98 f8 bc a6 17 37 3e 6e 1a a4 3a
       0.022609571 -0.03034605 0.17880115 0.0012520084
0003d0 ef 97 82 bd 2d b9 22 3d 57 6e 24 3e cf 44 00 be
       -0.06376635 0.03972738 0.16057716 -0.12526248
0003e0 66 1e da 3c fd 2a 90 3d 0c 41 7b 3d 65 d6 99 3d
       0.026625823 0.07039449 0.06134133 0.07511596
0003f0 ba ca b2 3d 1f e3 a3 3c f7 33 7a bb 29 bd f9 bd
       0.08730073 0.02000576 -0.0038177946 -0.121942826

layers.0.bias f4 [16]
000000 b9 db a9 3c ae 56 5b 3d 9f 8f af 3d ca a3 bd bc
       0.020734655 0.05354946 0.085723154 -0.02314939
000010 08 b3 82 3b d3 74 4c bd 8c 65 92 bc 61 93 84 3d
       0.0039886273 -0.0499161 -0.017870687 0.06473423
000020 da ce 37 bd 23 35 89 3d 8d 52 b6 3d 92 80 06 3d
       -0.044875003 0.06699588 0.08902464 0.032837458
000030 59 eb ab 3d 3a 37 c1 3c f6 10 52 bd 8d c7 9a 3b
       0.083944984 0.023585904 -0.051285706 0.0047234953

layers.1.weight f4 [16, 3]
000000 fb 21 bb 3e a6 dc 21 3f 42 88 1a be a9 3a 3b be
       0.36549363 0.6322731 -0.1509104 -0.18284096
000010 22 0f a5 3e 49 a0 bf 3d ca b4 07 3f ec c9 1d bf
       0.32238108 0.09356744 0.5301024 -0.61636233
000020 71 23 e9 3d 3a 61 05 3f cf dc 85 bb ff c7 85 bd
       0.11383713 0.5210148 -0.0040851603 -0.06532287
000030 4d 87 19 be 46 27 12 3f 3c d7 de 3e 97 c2 fb 3e
       -0.1499302 0.57091177 0.43523586 0.49171898
000040 a2 81 f6 be 1a 2a ce be ca 40 be 3e b1 c1 47 be
       -0.48145777 -0.40266496 0.37158805 -0.19507481
000050 dc 60 79 3d 00 cc 91 be 0d 05 cc 3e 7a fa 2e 3f
       0.060883388 -0.28475952 0.39847603 0.68350947
000060 5a 27 08 be 70 b8 73 be dc e2 da be eb 88 0f be
       -0.13296261 -0.23800826 -0.42751205 -0.14017074
000070 c0 c8 95 be eb 3e cd 3e 2f 22 00 3f 32 5c af 3e
       -0.29254723 0.40087065 0.5005216 0.34250027
000080 ae 90 c0 bd 92 11 2f bf 0b 98 22 bf f7 d4 7a 3e
       -0.094025955 -0.68386185 -0.6351325 0.24495302
000090 60 f9 3f 3c 4b ad 37 bf fb d0 8b be 7b 68 28 3f
       0.0117171705 -0.717488 -0.27307877 0.65784425
0000a0 ba 01 15 bf e0 e4 83 be 5e 10 c4 be 7b 95 98 3e
       -0.5820576 -0.25760555 -0.38293737 0.29801545
0000b0 36 d0 3a be 8d f9 23 bf ee 35 d6 3e 60 7d 0d bf
       -0.18243489 -0.6405266 0.4183802 -0.5526943

layers.1.bias f4 [3]
000000 62 0b 1f 3d 10 68 82 3d 9b 45 07 be
       0.038829215 0.063675046 -0.13210146
