gnn_checkpoints/gcn_cora.pt (torch, 94053 bytes, 4 tensors)

layers.0.bias f4 [16]
0	0x3e4bb8f8	0.19894779
1	0x3e1c1cc4	0.15245348
2	0x3dc50bfb	0.09621426
3	0x3dc46d7c	0.09591195
4	0x3e124676	0.14284691
5	0x3e362666	0.17788085
6	0x3dbdb98b	0.09263905
7	0x3e1e3273	0.15448932
8	0x3e2adc86	0.16685686
9	0x3e515498	0.20442426
10	0x3dff0306	0.124517485
11	0x3dbd740b	0.09250649
12	0x3e1d44bc	0.15358251
13	0x3e0f2545	0.13979061
14	0x3dc8ce66	0.098049924
15	0x3e54db90	0.20786881

layers.0.lin.weight f4 [16, 1433]
0	0x3e4840f1	0.19556023
1	0x3a89f3d6	0.0010524939
2	0x3d7d6d81	0.06187201
3	0xbe70ab9f	-0.23502968
4	0x3e1e223b	0.15442745
5	0x3e08d371	0.13361908
6	0x3e86f64b	0.26359782
7	0x3de5f472	0.11228265
8	0x3e226f4c	0.15862769
9	0xbda9565e	-0.08268426
10	0x3b1acccb	0.0023620601
11	0x3e3d45ba	0.1848363
12	0x3db671c3	0.08908417
13	0xbdf736d7	-0.12071007
14	0x3c6e901b	0.014560725
15	0x3dd93584	0.106059104
16	0xbd48f791	-0.049064223
17	0x3db13c49	0.086540766
18	0x3e262993	0.16226797
19	0x3e367bad	0.17820616
20	0x3b2e6775	0.0026611958
21	0xbe2b0318	-0.16700399
22	0x3dc41a0e	0.09575282
23	0x3e15001c	0.14550823
24	0xbdf28d6f	-0.118433826
25	0x3e3889d2	0.18021324
26	0x3ddfd53e	0.109293446
27	0x3e2c3703	0.1681786
28	0xbe1f9810	-0.15585351
29	0xbe0bd54c	-0.13655585
30	0xbe6822a1	-0.2266946
31	0x3d977288	0.07394892
32	0x3dc0717e	0.09396647
33	0x3e071f27	0.13195477
34	0x3df6cf8a	0.12051304
35	0xbcd2e279	-0.025742756
36	0x3e1bcab6	0.15214047
37	0xbe38eaec	-0.18058366
38	0xbe8ab356	-0.27089947
39	0x3db9c9f9	0.09071726
40	0x3e4e9e13	0.20177488
41	0x3cc6c23b	0.024262538
42	0x3c2eaf9c	0.010661986
43	0xbcc09c78	-0.02351211
44	0x3dec4e5b	0.115383826
45	0xbe12a2a7	-0.1431986
46	0x3dc184e6	0.094491765
47	0xbe1c28f1	-0.15249993
48	0xbc2cab63	-0.010538909
49	0xbd753069	-0.05986062
50	0xbe656aac	-0.22403973
51	0x3e687d5f	0.22704075
52	0x3d1ad780	0.037803173
53	0x3e5ceacc	0.21573943
54	0x3e0ff285	0.14057358
55	0x3dad2756	0.08454768
56	0xbe13c01e	-0.14428756
57	0x3e0c8b14	0.13724929
58	0x3e2054ec	0.15657395
59	0x3cae7580	0.021296263
60	0xbad902ac	-0.0016556582
61	0x3e3518ca	0.17685238
62	0x3e0d1f6e	0.1378152
63	0x3e24839e	0.16065833
64	0x3e19dbb5	0.15025218
65	0x3e3d2768	0.18472064
66	0xbde68121	-0.11255098
67	0x3e39b8aa	0.1813685
68	0x3dd00496	0.10157125
69	0x3d996147	0.07489257
70	0x3d327c8d	0.043575812
71	0xbdb280a9	-0.08715946
72	0x3e2dceab	0.16973369
73	0x3e0360d8	0.12829912
74	0xbe0a6680	-0.13515663
75	0x3e347a4d	0.17624779
76	0xbda8e265	-0.08246306
77	0x3e3d65ca	0.1849586
78	0x3e202a2f	0.15641092
79	0x3cc3f733	0.023921585
80	0x3d6a6e99	0.05723438
81	0xbdd14e8e	-0.10220061
82	0x3e132f55	0.14373524
83	0xbded1be0	-0.11577582
84	0xbbb132d9	-0.005407673
85	0x3e303557	0.17207848
86	0xbe168183	-0.14697842
87	0x3d96f6d6	0.07371299
88	0x3de19b19	0.11015911
89	0x3dcd25fe	0.10017012
90	0x3e0f0a0c	0.13968676
91	0xbae70d08	-0.0017627785
92	0x3e0e1c00	0.13877869
93	0x3db982b2	0.09058131
94	0xbccdeb23	-0.025136536
95	0x3dccb874	0.09996119
96	0x3c687285	0.01418746
97	0x3ddb1b90	0.106986165
98	0xbe744507	-0.23854457
99	0x3e7a5297	0.24445568
100	0x3e044eba	0.12920657
101	0x3e4f8792	0.2026656
102	0x3e2419fb	0.16025536
103	0x3e354147	0.17700683
104	0xbe006910	-0.12540078
105	0x3d98c07f	0.07458591
106	0x3d78c762	0.06073702
107	0xbdbd3ae8	-0.09239751
108	0xbdc54ff5	-0.09634391
109	0xbdaf351a	-0.0855505
110	0x3c70bcd6	0.0146934595
111	0xbe49d1d3	-0.19708948
112	0xbd43a75e	-0.047767036
113	0x3c064ab7	0.008196524
114	0x3e944a44	0.2896291
115	0x3e1bb602	0.15206149
116	0x3d8827ad	0.066481926
117	0xbe304184	-0.17212492
118	0x3e7ba3a2	0.2457414
119	0x3ddea0c8	0.1087051
120	0xbddf4ac3	-0.109029315
121	0x3e1e754f	0.15474437
122	0xbd612a27	-0.05497184
123	0x3e69a1e3	0.22815661
124	0xbe3f3735	-0.18673404
125	0x3e3ebb1f	0.18626069
126	0x3c84c0f8	0.016205296
127	0xbe201a0d	-0.15634938
128	0xbd3e3304	-0.04643537
129	0x3e0ec14d	0.13940926
130	0x3e81962b	0.25309882
131	0xbe1a7687	-0.15084277
132	0x3e302f48	0.17205536
133	0xbe0f9ed3	-0.1402543
134	0x3d927e99	0.07153053
135	0x3d8a2b54	0.067465454
136	0x3e212a3d	0.15738769
137	0xbe1574da	-0.14595357
138	0xbd5a6db1	-0.053327266
139	0xbdbf904a	-0.09353693
140	0x3e080327	0.13282453
141	0x3e2d0748	0.16897309
142	0xbbdd1400	-0.006746769
143	0xbc7e7ba2	-0.015532406
144	0xbe6457af	-0.22299074
145	0x3e1d0a68	0.15336001
146	0x3e4a47ed	0.19754
147	0xbd8f123c	-0.069859
148	0x3e2d2512	0.16908672
149	0x3de8e158	0.11371106
150	0x3db0397b	0.086047135
151	0x3e71bd2f	0.23607324
152	0xbe10c1c5	-0.14136417
153	0x3df8dabf	0.121510975
154	0x3e5da1cf	0.21643756
155	0xbd994b78	-0.07485098
156	0xbda7f235	-0.08200494
157	0x3e55d5dd	0.20882364
158	0x3e849a3d	0.25898924
159	0x3e300022	0.1718755
160	0x3e20d467	0.15706025
161	0x3d03cb9b	0.032176595
162	0xbd8655cb	-0.065593325
163	0x3e818d53	0.25303134
164	0x3e5d47f6	0.21609482
165	0xbe3bd215	-0.18341859
166	0xbc3a65b8	-0.011376791
167	0x3e20664b	0.15664022
168	0xbe0393d3	-0.12849359
169	0x3de35009	0.1109925
170	0x3e7cee0b	0.24700181
171	0x3c4e0e49	0.012576648
172	0x3e6610e5	0.22467382
173	0xbe8ca5f7	-0.2747037
174	0x3e394c34	0.18095475
175	0x3e285a13	0.1644061
176	0x3e485322	0.19562963
177	0x3d9a165f	0.07523798
178	0xbdbd7307	-0.09250455
179	0x3c9c9ed9	0.019118713
180	0x3e04d2b1	0.12970997
181	0x3db57fb5	0.08862249
182	0x3e3aba2c	0.18235081
183	0xbd9e0a31	-0.077167876
184	0x3d8cb87e	0.068711266
185	0x3e185dfb	0.148796
186	0x3e2a6812	0.16641262
187	0x3dc4c4bc	0.096078366
188	0xbd5dac0f	-0.054119166
189	0x3e42b21c	0.19013256
190	0xbdd77604	-0.105205566
191	0xbd87ea6d	-0.0663651
192	0xbc5df5ab	-0.013547341
193	0x3e0178cd	0.12643738
194	0xbdcdf9a9	-0.100573845
195	0x3e2b6d95	0.16741021
196	0xbe2c7124	-0.16840035
197	0xbd91a0b9	-0.071107335
198	0x3e604df1	0.21904732
199	0x3e2137a8	0.15743887
200	0xbc7dcce6	-0.015490746
201	0xbb4f5c0c	-0.0031640558
202	0x3e3f9306	0.18708429
203	0x3da24352	0.079229966
204	0x3cee8476	0.029115897
205	0xbd62995c	-0.055322036
206	0xbdbf1c0f	-0.093315236
207	0x3d91205f	0.070862524
208	0xbe4475a5	-0.19185503
209	0x3dc76880	0.09736729
210	0xbdfe1332	-0.12406005
211	0x3da7f993	0.082018994
212	0xbe11a350	-0.14222455
213	0x3ca9f524	0.020746775
214	0x3df71670	0.120648265
215	0x3e7d90a0	0.24762201
216	0x3e065ef2	0.13122156
217	0xbd2d06ce	-0.042242818
218	0xbe3c4179	-0.18384351
219	0xbca28f89	-0.019843834
220	0xbc8e38ab	-0.017361006
221	0x3e503312	0.20331982
222	0x3e85bb61	0.2611952
223	0x3dccd99c	0.10002443
224	0x3e2de913	0.16983442
225	0x3dfb3782	0.12266447
226	0x3e1896e0	0.14901304
227	0x3e23fc37	0.16014181
228	0x3d83247b	0.064034425
229	0x3daed48c	0.08536634
230	0x3e21028c	0.15723628
231	0x3e274f19	0.16338767
232	0x3e3f82a3	0.18702178
233	0xbdd76184	-0.105166465
234	0x3e515af6	0.20444855
235	0x3d4da6a6	0.050207756
236	0x3e2c65c8	0.16835701
237	0xbe4f30c7	-0.20233451
238	0x3e815a7c	0.25264347
239	0xbd9e1ce8	-0.07720357
240	0x3e472b5a	0.19450131
241	0x3b7d80ad	0.0038681433
242	0x3d9e4d4e	0.077295884
243	0x3e849bb1	0.25900033
244	0x3e25af57	0.16180168
245	0xbd36ba0d	-0.044611026
246	0x3dd196a3	0.1023381
247	0x3c1b4244	0.009476248
248	0x3d8b7122	0.06808688
249	0x3e2b6cef	0.16740774
250	0x3db133cd	0.08652458
251	0x3d19bd2f	0.037533935
252	0x3d734990	0.059396327
253	0xbc9e4136	-0.019318204
254	0xbe6b582a	-0.2298285
255	0xbd84e5ff	-0.06489181

layers.1.bias f4 [7]
0	0xbe6b8b49	-0.23002352
1	0x3e6ad4da	0.22932759
2	0x3e64b1ed	0.22333498
3	0x3d3a5735	0.045493323
4	0xbe6a5a3b	-0.22885983
5	0xbdf03603	-0.11729052
6	0x3e77cfa9	0.2420031

layers.1.lin.weight f4 [7, 16]
0	0x3eeff85a	0.46869165
1	0xbf21dbe4	-0.6322615
2	0xbe44354a	-0.19160953
3	0x3e5f6380	0.218153
4	0x3e8a6c47	0.27035734
5	0xbe13052e	-0.14357445
6	0x3f34b873	0.7059395
7	0x3f088e82	0.5334245
8	0x3eb9dc65	0.3630096
9	0xbd8fcd7d	-0.07021616
10	0x3e849b23	0.2589961
11	0x3d70e322	0.05881036
12	0x3e790706	0.24319085
13	0xbee6a3f9	-0.45046976
14	0x3ef24ba1	0.47323325
15	0xbf119a18	-0.56875753
16	0x3ef54809	0.4790652
17	0xbf0c0eee	-0.5471028
18	0x3f355379	0.70830494
19	0x3e784ee8	0.2424885
20	0xbe8ac74d	-0.2710518
21	0x3eeebf41	0.4663029
22	0xbef715d3	-0.48258838
23	0x3f294ddc	0.6613443
24	0x3eb82818	0.3596809
25	0xbddcce1b	-0.10781499
26	0xbecbbd83	-0.39793023
27	0xbf2e2186	-0.680199
28	0xbf1498ce	-0.5804566
29	0xbf31fda6	-0.6952766
30	0xbeae2302	-0.34011084
31	0x3e38420c	0.17993945
32	0x3f0939bd	0.53603727
33	0x3ee3e651	0.44511655
34	0x3e412b06	0.18864068
35	0xbf2685e7	-0.6504807
36	0x3eb9f514	0.36319792
37	0xbe478ea2	-0.19488004
38	0x3e22d3fa	0.15901175
39	0xbec1d4e0	-0.37857723
40	0xbf36f6eb	-0.71470517
41	0x3f1f1840	0.6214638
42	0xbf28dfbd	-0.659664
43	0xbed24057	-0.41064712
44	0x3edbddcf	0.42942664
45	0xbf05bdde	-0.5224284
46	0x3efefd13	0.49802455
47	0xbf363f70	-0.7119055
48	0x3f1b1ed8	0.6059394
49	0x3e8049d0	0.25056314
50	0xbf11240f	-0.56695646
51	0xbea5ceb0	-0.32384253
52	0xbf28b4f6	-0.65901124
53	0xbf05f38a	-0.52324736
54	0xbf18963c	-0.5960424
55	0xbea3a2d7	-0.31960174
56	0x3ef7e313	0.4841543
57	0x3eaa1556	0.33219403
58	0x3f053052	0.52026856
59	0x3f16b6a3	0.5887243
60	0xbee5f2f7	-0.4491193
61	0x3eb9c98c	0.3628658
62	0x3f1821be	0.59426486
63	0xbdc7d07d	-0.09756563
64	0xbe876cfe	-0.26450342
65	0x3ef00e35	0.4688584
66	0x3efa2555	0.48856607
67	0xbf0a013f	-0.5390815
68	0x3dd5684f	0.10420286
69	0x3e748f4c	0.23882788
70	0x3e640c5f	0.22270344
71	0xbf0f2444	-0.5591471
72	0x3f2b2945	0.6685985
73	0xbdda7137	-0.10666125
74	0xbe4a83e6	-0.19776878
75	0x3e10e9c0	0.14151669
76	0x3ea3a7d4	0.3196398
77	0xbe159577	-0.14607798
78	0x3e683cfd	0.22679515
79	0x3dcbea3c	0.09956786
80	0xbeeab37b	-0.45840058
81	0xbf1c09df	-0.6095256
82	0x3efe5110	0.4967122
83	0x3ee6f048	0.45105195
84	0xbe7a4792	-0.24441364
85	0x3ef4a056	0.47778577
86	0x3f190a6c	0.5978153
87	0x3ec51690	0.38493776
88	0xbeb13f01	-0.3461838
89	0x3f2f051a	0.6836716
90	0xbf001fd4	-0.50048566
91	0xbee8f134	-0.45496523
92	0x3e8c881e	0.274476
93	0xbe9bf852	-0.3046289
94	0xbec150c4	-0.37756932
95	0xbe055f77	-0.13024698
96	0x3e34dca2	0.1766229
97	0x3e05e177	0.1307429
98	0xbf30f81a	-0.6912857
99	0x3c42af8e	0.011882676
100	0x3f352d73	0.70772475
101	0x3ec7a2d6	0.3899142
102	0xbf2d3788	-0.6766286
103	0xbed2a406	-0.41140765
104	0xbe7f052f	-0.24904321
105	0x3d8b4f0a	0.06802185
106	0xbe21a771	-0.1578653
107	0xbf03c52d	-0.5147274
108	0xbe945bd3	-0.28976306
109	0xbec8c763	-0.3921462
110	0xbe8cd1dc	-0.2750386
111	0x3ec9fdea	0.39451534
