gnn_checkpoints/gcn_cora_Para-True.pt (torch, 93791 bytes, 4 tensors)

module.layers.0.weight f4 [1433, 16]
0	0x3cf5ddf7	0.030013068
1	0xbc9ea261	-0.019364538
2	0xbd0f07e6	-0.034919642
3	0xbc795ada	-0.015219415
4	0xbc5b95de	-0.01340243
5	0xbcbed063	-0.023292726
6	0x3c98ec87	0.018667473
7	0xbb0f5dcd	-0.0021875978
8	0xbb9ff9f7	-0.004882093
9	0x3cda1416	0.026620906
10	0x3cbf672c	0.023364626
11	0xbd19753e	-0.037465326
12	0xbd1c4ca3	-0.038159024
13	0x3cf39f31	0.029738994
14	0xbd051c0f	-0.032497462
15	0x3d5fa757	0.054602947
16	0xbcdfeee3	-0.02733559
17	0x3b39d41d	0.002835519
18	0x3d00a9a6	0.03141179
19	0xbba728a2	-0.0051012794
20	0x3c3aaea2	0.011394175
21	0x3d10708d	0.035263587
22	0xbb98f4c7	-0.0046678516
23	0x3e354ced	0.17705126
24	0x3e2c67fc	0.16836542
25	0x3db80247	0.08984809
26	0xbdf3d8c2	-0.11906578
27	0x3d19a051	0.037506405
28	0x3d29496c	0.041329786
29	0x3d751fa7	0.05984464
30	0x3e2ff6b9	0.17183961
31	0xbdac5bee	-0.08415972
32	0x3c1e0169	0.009643891
33	0xbdedaeef	-0.116056316
34	0xbe23dbee	-0.16001865
35	0xbcbd243a	-0.023088563
36	0xbc2cdcf3	-0.010550725
37	0xbde9c972	-0.11415376
38	0x3d71d4aa	0.059040703
39	0x3cb2b221	0.021813454
40	0x3db6ebc1	0.08931685
41	0x3e121126	0.14264354
42	0x3ce253f7	0.027627928
43	0x3b486eb8	0.0030583572
44	0xbde0005c	-0.109375685
45	0x3dd99148	0.10623413
46	0x3ba9597a	0.005168137
47	0x3d3591c5	0.04432847
48	0xbe1509c2	-0.14554504
49	0x3e456cce	0.19279787
50	0x3e2698e6	0.16269264
51	0x3e1f38ac	0.15548962
52	0x3e51b740	0.2048006
53	0x3e107862	0.14108422
54	0xbe06ebb2	-0.13175848
55	0xbe481216	-0.19538149
56	0xbe76e4fe	-0.24110791
57	0xbe2db479	-0.16963376
58	0xbce3a327	-0.027787758
59	0xbda1155f	-0.07865404
60	0x3e15b429	0.14619507
61	0xbd8bfb23	-0.0683501
62	0x3d60ad0c	0.05485253
63	0x3d4cea4a	0.050028123
64	0xbdc2864c	-0.09498271
65	0x3df28026	0.118408486
66	0xbe39ceca	-0.1814529
67	0x3ecb2d81	0.39683154
68	0x3ecf7fb3	0.40527114
69	0xbd464814	-0.048408583
70	0x3dc481c2	0.09595062
71	0xbe63159a	-0.22176209
72	0xbe604f08	-0.21905148
73	0x3e68faf7	0.22751985
74	0x3ea56889	0.32306316
75	0xbcea74be	-0.02862012
76	0xbe372abf	-0.178874
77	0x3de4f04e	0.11178647
78	0xbddbcc5a	-0.10732336
79	0x3ea33bea	0.31881648
80	0xbd85ee21	-0.0653956
81	0xbc99cc87	-0.018774284
82	0x3ccac994	0.024754323
83	0x3d2137d4	0.039359882
84	0x3d379935	0.044823844
85	0x3c486fbe	0.012233673
86	0x3d158d18	0.03651151
87	0xbca989c1	-0.020695569
88	0x3c1da3fe	0.009621618
89	0x3c98f9e7	0.01867385
90	0xbd07e5ec	-0.033178255
91	0xb7c2f25b	-2.3239458e-05
92	0x3c115d80	0.00887239
93	0x3cfcddc5	0.030867467
94	0x3b3dc1da	0.0028954656
95	0x3cec0636	0.028811555
96	0x3e209cb9	0.15684785
97	0x3cd16e36	0.025565248
98	0x3d65c387	0.056094673
99	0xbd90e9d3	-0.070758484
100	0xbd889877	-0.06669705
101	0x3d9139f0	0.07091129
102	0xbb45fd8f	-0.0030210947
103	0x3d5bf34c	0.053698823
104	0x3dcb7e87	0.099362426
105	0xbe03faab	-0.12888591
106	0xbcac83fe	-0.021059033
107	0x3d8c2d5d	0.0684459
108	0xbc7ee169	-0.015556672
109	0x3d6346e9	0.055487547
110	0xbd7bd1bd	-0.06147932
111	0x3d18d555	0.037312824
112	0xbd413b59	-0.04717574
113	0xbd59c6c1	-0.053168062
114	0x3d876c2f	0.06612431
115	0xbd44ff5e	-0.0480951
116	0xbd64e01a	-0.055877782
117	0xbd843d54	-0.0645701
118	0x3d9311ef	0.07181155
119	0x3d73a64a	0.059484757
120	0x3d6a811c	0.057252035
121	0x3dd9f735	0.10642854
122	0xbd3ea31a	-0.046542265
123	0x3d21a912	0.03946788
124	0x3dc72181	0.09723187
125	0xbd6c97af	-0.057761844
126	0x3d9110a9	0.07083256
127	0xbd53cf58	-0.05171141
128	0xbc41d77c	-0.011831161
129	0x3cb3d4d8	0.021952078
130	0xbddfe950	-0.10933173
131	0xbc82fc22	-0.015989367
132	0x3dcb2262	0.099186674
133	0x3dc4736d	0.09592328
134	0xbc64b358	-0.0139587745
135	0x3de5693c	0.112017125
136	0xbd0167a2	-0.031592973
137	0x3c4c4cef	0.012469514
138	0x3e351e69	0.17687382
139	0xbd98c950	-0.07460272
140	0xbe0ccf66	-0.13750991
141	0xba6ce9d6	-0.000903753
142	0x3ceed761	0.029155435
143	0x3d616c36	0.05503484
144	0xba9abdd5	-0.0011805842
145	0xb58292f2	-9.728521e-07
146	0xbae5ce2b	-0.0017532756
147	0x3ac1a174	0.0014772848
148	0x37b12be8	2.112049e-05
149	0x3b28019a	0.002563572
150	0xb6000df4	-1.9081608e-06
151	0x3a747fed	0.0009326924
152	0x3b984961	0.0046474193
153	0x36e2a62e	6.7546707e-06
154	0x3a3db257	0.00072363525
155	0x340a7cf1	1.2897705e-07
156	0xb94955f9	-0.00019200881
157	0x3aab2a6c	0.0013058907
158	0xb56b6d0f	-8.7703023e-07
159	0xba38525f	-0.0007031317
160	0xbcac93e5	-0.021066615
161	0xbdb6d678	-0.089276254
162	0x3cf1f4e7	0.029535724
163	0xbda4b836	-0.08042948
164	0xbd4c966d	-0.049948145
165	0xbd8c8c2f	-0.068626754
166	0x3d97448d	0.07386122
167	0x3de8eede	0.11373685
168	0x3e0b6f6b	0.13616721
169	0x3dde9a9a	0.10869332
170	0xbd7783af	-0.060428318
171	0x3d0273b7	0.031848636
172	0x3dace323	0.084417604
173	0xbc9d4d33	-0.01920185
174	0x3de159ae	0.11003433
175	0xbda291ee	-0.0793799
176	0x3ccbf56b	0.024897298
177	0xbc141b2d	-0.009039682
178	0xbcb364bd	-0.021898622
179	0x3c80243a	0.015642274
180	0xbb4d7296	-0.0031348816
181	0x3b51be47	0.0032004283
182	0xbbe41a00	-0.0069611073
183	0x3b60bc70	0.0034292005
184	0x3c4fcf3f	0.012683689
185	0xba638377	-0.00086789526
186	0x3b0f7799	0.0021891354
187	0x39a1d6a9	0.00030868247
188	0xbc7fad1a	-0.0156052355
189	0x3d0e7c29	0.034786377
190	0xbca1f55e	-0.01977032
191	0x3bf87eef	0.007583491
192	0xbd844c78	-0.06459898
193	0xbd92a0f0	-0.07159603
194	0xbd85879e	-0.065200076
195	0x3dc8140a	0.09769447
196	0xbd3a331e	-0.045458905
197	0xbdd4ea0e	-0.10396205
198	0x3e055942	0.1302233
199	0xbe0bab7a	-0.13639632
200	0xbd881823	-0.06645229
201	0x3e497043	0.1967173
202	0x3e069927	0.1314436
203	0xbc44687f	-0.011987804
204	0xbde3342e	-0.11093937
205	0x3d2b3fc1	0.041808847
206	0xbe27ec84	-0.16398817
207	0x3e1cd245	0.15314586
208	0xbc82f11a	-0.015984107
209	0xbca850ae	-0.020546284
210	0x3ccfdaf7	0.025372965
211	0xbce29719	-0.02765994
212	0xbcb356f9	-0.021892058
213	0x3c2032ab	0.009777705
214	0x3b9ed6b1	0.0048473706
215	0x3d0f0591	0.034917418
216	0x3ce9f504	0.028559215
217	0x3c8786b7	0.01654373
218	0xbc845895	-0.01615552
219	0xbbf1db32	-0.0073808664
220	0x3d15eeb5	0.036604602
221	0xbcfcf809	-0.030879991
222	0x3cea54f9	0.028604971
223	0xbc2c2517	-0.01050689
224	0x3b9a56ff	0.004710078
225	0x3cb0b3ba	0.021570075
226	0xbcb1195b	-0.021618536
227	0xbc4edddc	-0.012626138
228	0x3c8663b6	0.016404968
229	0x3c74cdd3	0.01494165
230	0xbb5d986d	-0.0033812777
231	0x3c7cc473	0.0154276965
232	0x3b2d8f26	0.0026483028
233	0x3ae67d2c	0.0017584912
234	0x3bf3eabc	0.007443754
235	0xbca230a7	-0.01979859
236	0xbc3d91c8	-0.0115704015
237	0xbc6b38f1	-0.014356838
238	0x3cca6349	0.024705546
239	0xba953669	-0.0011384013
240	0x3c272bd0	0.010203317
241	0xba47261f	-0.0007596928
242	0xbccaca04	-0.024754532
243	0xbc753374	-0.014965881
244	0x3b86238a	0.004093592
245	0x3bb6953e	0.0055719903
246	0xbbdb4192	-0.006691166
247	0x3c580e71	0.013187037
248	0xbac6eace	-0.0015176178
249	0xbb86a417	-0.0041089165
250	0x3aa85f84	0.0012845849
251	0x3a1ae193	0.0005908247
252	0xbbdb6bb9	-0.006696191
253	0xbba6845d	-0.005081697
254	0x395820fa	0.0002061165
255	0xbbc1e727	-0.005917448

module.layers.0.bias f4 [16]
0	0x3ecfba26	0.40571707
1	0x3eb7be01	0.3588715
2	0x3e8adc6a	0.27121288
3	0x3ed08893	0.40729198
4	0x3e887a0c	0.26655614
5	0x3e660623	0.22463278
6	0x3ea802b8	0.32814574
7	0x3e430122	0.19043401
8	0x3e3ab5d7	0.18233429
9	0x3e0dc786	0.13845643
10	0x3e87af7c	0.2650107
11	0x3e9edbe1	0.3102713
12	0x3e637c9a	0.222155
13	0x3e93f360	0.28896618
14	0x3e28b19a	0.16474
15	0x3ea73a08	0.32661462

module.layers.1.weight f4 [16, 7]
0	0xbf40a815	-0.7525647
1	0x3f57d09a	0.84302676
2	0xbf5bd9e6	-0.8587936
3	0x3f0d61b0	0.55227184
4	0xbf1d7020	-0.61499214
5	0x3f05d631	0.52279955
6	0x3f6c56bd	0.9231985
7	0xbf65dce1	-0.8979016
8	0xbf7339cc	-0.95010066
9	0x3ee24110	0.44190264
10	0x3ed672a9	0.41884354
11	0xbf7b98e6	-0.9828018
12	0x3f0428e6	0.51624906
13	0x3f2c84b5	0.67389995
14	0xbf7c68c5	-0.98597366
15	0xbe98d027	-0.29846308
16	0x3f4fbbcd	0.81145936
17	0xbf706b48	-0.939137
18	0x3f02f27e	0.51151264
19	0xbf85a666	-1.0441406
20	0x3f36259a	0.71151125
21	0x3f3a12b3	0.7268478
22	0x3f1f5b82	0.62249005
23	0x3f5313c3	0.8245203
24	0x3f09c789	0.5382009
25	0xbf0afb0d	-0.54289323
26	0xbf542c31	-0.8287993
27	0xbf471916	-0.77772653
28	0x3e9f5912	0.31122643
29	0xbf009eb3	-0.50242156
30	0x3f4067c6	0.75158346
31	0x3f517db2	0.8183242
32	0xbf39a512	-0.725175
33	0x3f7418f3	0.9535057
34	0xbf8a9e86	-1.0829628
35	0xbf83b64a	-1.0290005
36	0x3f5774d9	0.8416267
37	0x3f6fd38b	0.93682164
38	0xbf399bdb	-0.7250344
39	0xbf314d36	-0.6925844
40	0x3f6b9eaf	0.92039007
41	0xbf51d084	-0.81958795
42	0x3f554b07	0.8331761
43	0xbf732cef	-0.9499044
44	0xbf4138f8	-0.7547755
45	0x3eea5d01	0.4577408
46	0x3f0ef00a	0.5583502
47	0xbf20fb75	-0.6288369
48	0x3f409aa0	0.7523594
49	0xbedd3f03	-0.43212137
50	0x3f2442c1	0.6416436
51	0xbf8b4e79	-1.0883323
52	0xbf2eb005	-0.68237334
53	0x3f4f2e0f	0.80929655
54	0x3f78219c	0.96926284
55	0xbf4fdcae	-0.81196105
56	0xbf8d26c4	-1.1027455
57	0x3f69e7ad	0.91369134
58	0xbf8a32fd	-1.079681
59	0x3f19e84f	0.601201
60	0x3f6fc955	0.93666583
61	0xbf348fd7	-0.7053198
62	0xbf633905	-0.8875888
63	0x3f5385f6	0.82626283
64	0xbf409382	-0.7522508
65	0xbf82ad7f	-1.0209197
66	0xbd381b27	-0.04494777
67	0x3f2c5f3d	0.6733282
68	0xbf226cda	-0.63447344
69	0xbf43aa5f	-0.7643184
70	0x3f442df4	0.7663262
71	0xbf26307e	-0.64917743
72	0xbf7d25f9	-0.98886067
73	0xbf23a0ca	-0.6391722
74	0xbf3fb325	-0.7488273
75	0x3f4c9859	0.79919964
76	0x3f2de4f1	0.6792746
77	0xbed0a374	-0.40749705
78	0xbf1b6594	-0.6070187
79	0xbf05ef69	-0.52318436
80	0x3f884dbf	1.0648726
81	0x3ee9bf9a	0.45653993
82	0xbf3f9213	-0.74832267
83	0x3f7f1bbf	0.9965171
84	0xbf8667f5	-1.0500475
85	0xbf226168	-0.6342988
86	0x3f50a31d	0.8149889
87	0xbf7477c8	-0.9549527
88	0x3f438bfd	0.7638548
89	0xbf5f0a9e	-0.87125576
90	0x3f18a065	0.5961974
91	0x3db9ff11	0.09081853
92	0x3f792e32	0.97336113
93	0xbf682791	-0.90685374
94	0x3f63dad9	0.8900581
95	0xbf4e6404	-0.8062136
96	0xbf8ba1be	-1.0908735
97	0xbf3b5401	-0.73175055
98	0xbf75e9e5	-0.9606002
99	0xbf861213	-1.0474266
100	0x3eaebc82	0.34128195
101	0x3f1543d7	0.5830664
102	0x3f5bf2f3	0.85917586
103	0x3f53b1cd	0.8269318
104	0xbf86afc7	-1.0522393
105	0x3f706e90	0.93918705
106	0x3f2ff3ad	0.68731195
107	0x3f1c25b0	0.60995007
108	0xbf364175	-0.7119363
109	0xbf120812	-0.57043564
110	0xbf4e0109	-0.8047033
111	0xbb054bd0	-0.0020339377

module.layers.1.bias f4 [7]
0	0x3eef3da3	0.46726713
1	0x3e9dff7b	0.3085898
2	0x3e6c0f3f	0.23052691
3	0xbee98b15	-0.45613924
4	0xbe6b5de3	-0.22985034
5	0x3e0e5ddf	0.13902996
6	0xbd79cb8e	-0.06098514
