gnn_checkpoints/gcn_cora_4.pt (torch, 93727 bytes, 4 tensors)

layers.0.weight f4 [1433, 16]
00000000: aca3 dcbb dfbc 30bb d93e 83bc 9eb9 983b
00000010: 9f98 5a3d 37a6 573c 142f e43c fd23 82bc
00000020: 80a7 07bd dad6 8c3c 9788 b2bc 26b7 7a3c
00000030: 4ab6 bf3c c28c 093d 9b59 aa3a 149e c53d
00000040: 9d5e 293e 2d1b 9fbd 6e6b 5a3e b974 54bd
00000050: 859f bb3d 98ac 25be 03a5 233d a2d7 ac3b
00000060: 2b67 b1bc ed73 123e 853b 823c 75df acbd
00000070: f5bf 31bc ebb7 dfbd bd0d 36bd 6fa7 223e
00000080: b038 5fbb e285 31bd 6a15 913d ad3a 0abd
00000090: 5f74 363e ad37 013d 5a0b b83d b30d dfbd
000000a0: 0578 0abe fade f73c ac55 f63c 0048 94bd
000000b0: af33 133e a716 063d df7a c13c 3202 f93d
000000c0: 52aa 4b3e 0d83 3abe 5383 89be bb55 813e
000000d0: 4b39 3cbe 7cf6 83bd 555e 30be 01b7 793c
000000e0: 68ea 9b3e f4f7 83be eeb8 91bd e3c6 393e
000000f0: 6904 8dbd 2e80 f0bd 259a 11be 9e8f 5fbe
00000100: 6d22 5abe 19a3 15be facf aebe 6755 a43e
00000110: 6b73 6f3e afaf 823e 2a6b 89bc 1dc6 c63d
00000120: 50a3 b03d 21fd 96be c824 fd3d 3566 a33e
00000130: aea7 a73e 737e 113e ef19 15bc 4c77 df3d
00000140: 9829 563d 6e19 04bd 2024 37bd a896 953d
00000150: 6ccc 243d ec9f 1b3c 6a90 d73a a934 193d
00000160: 0c89 bd3c fa2c 033d 4f45 18bd 59a8 e33d
00000170: 667d e33c fdc6 303d 2184 363c aade aa3c
00000180: 6766 90bd 5c3c fe3d f424 d03c 2856 28be
00000190: fac2 f8bd 5412 133d 0b34 9dbc 5f5a c13d
000001a0: 1e9b c63d 12dc 273e efdd 123d 3b17 9c3d
000001b0: ff80 c9bc f2e0 933d 5eeb 5b3e 0749 1b3d
000001c0: 5f89 223e c454 82bd 90d0 243e 7764 9cbd
000001d0: 7881 863d e8f2 dfbd f23f 2a3e a012 b9bd
000001e0: 061a d5bc ed10 633d b55c b4bc b9db 19be
000001f0: 29e1 11bd 2864 7f3b b622 cdbd 976f a73d
00000200: bbb7 3abe c1e3 b73d 070d c73d 00f3 483e
00000210: 8891 db3d 8433 133e 28b3 4bbd f501 e83d
00000220: c1c7 d8bd 1fca 053b cb90 f63d ac25 ce3d
00000230: 486a c63b c84a 5cbd 8da4 2bbd 8a23 a33d
00000240: a11b ebb7 0186 c03b e027 603b 7674 e939
00000250: 7c4f 0fb9 11e6 1abb aeed ed38 8401 6d3b
00000260: e079 0639 9530 0b3c 9086 23b6 da33 d23a
00000270: 8564 df37 4c3c 64bb 4e94 5c3a 6ec2 2c3b
00000280: 7060 3a3e 0f68 24bd 99ac 543e 16c9 d5bd
00000290: 3f16 d63d bf51 efbd daf5 273e 2f43 b9bd
000002a0: cae1 c7bd b976 7a3d f4da 1ebd 4e56 22be
000002b0: 51fd 84bc 0fcf 22bd e3b5 31bd 32d8 f43d
000002c0: 0f9d 0dbd 3f1d 3b3c 4169 6cbc e042 f939
000002d0: 3e7f eab9 9469 4b3b 33ee 02bc c10b 7ab8
000002e0: 5717 90bc f478 2b3c 145a 32bc 7239 6c3c
000002f0: ea20 c73c e7dc a03b 4d4a a83c 8eff a63c
00000300: cb78 81be 7869 9dbd 0df5 6abe 35d8 083e
00000310: dfec 153e 2548 353e 02b7 d63d 2e22 0cbe
00000320: 9efc 57bd 8939 88bc f32e d5bd 6207 053e
00000330: cd40 133e 9af4 293e ccac d63b 3dcd 553e
00000340: 6631 c13d 7358 3bbc 1331 253d 2184 94bc
00000350: 2676 0f3b 0cc4 31bd dd27 c53c c00b 2dbd
00000360: 304d c9bc ebc7 c63c 251f 46bd 7e86 dbbb
00000370: ee33 4dbd 9fe9 6f3b 16ca 28bd 4190 b73c
00000380: 8663 413c 910f aabb 03ac b3ba 1997 603c
00000390: 5131 ab3c 6247 903b f7cb 41bb 5f90 3fbc
000003a0: d23d 9dbc 9f8f 3cbc 195b 113b c1d5 94bc
000003b0: b438 55b9 ab4a 50bc d849 81bc 91dc c3bb
000003c0: a160 a63a f450 99bb 337f 713b 22e1 a43a
000003d0: c16c d23a 071e fb39 bc73 6cbb 4b7a db3b
000003e0: 7e93 91bb 9450 8c38 6c18 2abb d147 19bb
000003f0: 649d bdbb 34c0 c0bb 0bf5 9fbb 9be6 96bb
-0.0067333784 -0.0026968045 -0.016021179 0.004660799 0.053368207 0.013162187 0.02785448 -0.015886301
-0.033118725 0.017192293 -0.021793647 0.015302455 0.023402352 0.033581503 0.0012996675 0.09649292
0.16539998 -0.07768855 0.21330044 -0.051869128 0.09161285 -0.1617912 0.03995229 0.005274729
-0.02165564 0.14302035 0.015897522 -0.084410585 -0.010848989 -0.109237514 -0.044446696 0.15884183
-0.0034060888 -0.04334057 0.070841625 -0.033747364 0.1781783 0.031547237 0.0898654 -0.10891285
-0.13522346 0.03025769 0.030070148 -0.072402954 0.14375184 0.032736447 0.02361816 0.12158622
0.19889191 -0.18214054 -0.26858005 0.2526072 -0.1838123 -0.064434975 -0.17223485 0.015241385
0.30452275 -0.2577511 -0.07115351 0.18142276 -0.06885607 -0.11743198 -0.14218958 -0.2183213
-0.21302195 -0.14612998 -0.3414305 0.32096407 0.23383872 0.2552466 -0.016774733 0.09705756
0.086248994 -0.29489997 0.12360531 0.31913915 0.32745117 0.14208393 -0.009100421 0.10911426
0.05228576 -0.032250814 -0.044712186 0.07304126 0.040234014 0.009498578 0.0016446237 0.037403736
0.023136638 0.032025315 -0.037175473 0.11116094 0.027769756 0.04315852 0.0111399 0.020858128
-0.07050782 0.124138564 0.025408246 -0.16439116 -0.12146564 0.03590615 -0.019189855 0.09441065
0.09697555 0.16392544 0.035856184 0.07621618 -0.024597643 0.07220639 0.21476504 0.03791144
0.15872715 -0.06363824 0.16095185 -0.0763635 0.06567663 -0.109350026 0.16625956 -0.090367556
-0.026013386 0.055436064 -0.022016862 -0.15025224 -0.03561512 0.003896961 -0.10016386 0.08175581
-0.1823415 0.089789875 0.09719282 0.19623947 0.10721117 0.1437512 -0.049731404 0.11328498
-0.10584975 0.0020414663 0.12039336 0.10065779 0.00605515 -0.053782254 -0.041904975 0.07965763
-2.8027049e-05 0.0058753495 0.0034203455 0.00044527993 -0.00013667153 -0.0023635665 0.00011345312 0.0036164233
0.00012824638 0.00849547 -2.4367218e-06 0.0016037181 2.663048e-05 -0.0034825979 0.0008414433 0.0026361006
0.1820085 -0.0401383 0.20768966 -0.10438745 0.10453462 -0.11685514 0.16402379 -0.090460174
-0.09759863 0.06114838 -0.03878303 -0.15853235 -0.016234072 -0.039748248 -0.04338635 0.119552985
-0.03457361 0.011420547 -0.014429391 0.00047542807 -0.0004472676 0.0031038271 -0.007991361 -5.961559e-05
-0.017589254 0.010465849 -0.010885734 0.014417993 0.024307687 0.004909146 0.020543242 0.02038553
-0.2528747 -0.07686132 -0.22945042 0.13363726 0.1464114 0.17703302 0.10484125 -0.13684914
-0.05273115 -0.016628997 -0.104093455 0.12991098 0.14380188 0.16597214 0.0065513607 0.20879073
0.0943325 -0.011434662 0.040330004 -0.01812941 0.002189049 -0.043399855 0.02406686 -0.042247534
-0.024572939 0.02426525 -0.048369545 -0.0066993823 -0.050098352 0.0036607755 -0.04120835 0.022407653
0.011803513 -0.005189844 -0.001370788 0.0137078995 0.02089754 0.0044030407 -0.0029571035 -0.011692136
-0.019194517 -0.011508851 0.0022179543 -0.018168332 -0.00020334386 -0.012713115 -0.015782282 -0.0059772213
0.0012693593 -0.00467884 0.0036849498 0.0012579302 0.001605414 0.00047896823 -0.0036079725 0.006697928
-0.0044426313 6.690729e-05 -0.0025954498 -0.0023388753 -0.0057865847 -0.0058822874 -0.0048815063 -0.004605127

layers.0.bias f4 [16]
00000000: 0c89 423e f6c4 923e f93d 2d3e 59c8 5c3e
00000010: 82f0 123e 43ba 6c3e 2abb 813e 08ef 8a3e
00000020: e9bf 973e f653 623e a73d 913e ff01 8b3e
00000030: 9fea 3a3e 4865 393e e7cd c63e 9d95 3c3e
0.18997592 0.28665894 0.16918172 0.21560802 0.14349559 0.23117928 0.25338107 0.2713549
0.29638603 0.22102341 0.2836735 0.2714996 0.18253563 0.18105042 0.38828966 0.18416448

layers.1.weight f4 [16, 7]
00000000: 5f6f 12bf 6ee1 11bf fc4b 663f d029 ae3d
00000010: 953c 423f 96a1 7bbf f94e 2bbf 7e96 0dbf
00000020: 4329 1e3f 09e7 14bf 00b1 f6be c174 02bf
00000030: ef02 0b3f 04e8 0d3f 29c7 1bbf a89f 9f3e
00000040: 1ab7 48bf 0560 98be 97f5 503f 6a80 213f
00000050: f3f3 63bf bcb3 333f a111 eabe ed15 623f
00000060: af90 fa3d 0672 14bf 3128 423f 02ba 74bf
00000070: 3026 513f ce67 41bf 4e72 6cbf 06c4 043f
00000080: 89b1 023f a56e c73d 51c1 70bf 75be 2e3f
00000090: 7ae5 d7be 8f25 01bf 1bf8 07bf ef19 67bf
000000a0: 7a7a 083f 0df2 393f b682 593e ca5f 31bf
000000b0: cc63 44bf 662e 07be 789f fc3e d96f 75bf
000000c0: 66c6 a03e 6c8e 23bf 9e92 553f 74a2 0c3f
000000d0: dc38 133f 5809 29bf 0928 223f 3b42 45bf
000000e0: bb96 3bbf 86c5 a6be d8a4 793f 8fb5 2c3f
000000f0: 5b94 f1be 417b 41bf 5ef0 563f c1d5 4cbf
00000100: 3f69 643f e43f 3dbf 848e 06bf f81d fd3e
00000110: ddb5 4fbf cc2c f7be d9c3 78bf a7bb 11bf
00000120: dc2a 69bf 91c6 273f e797 f4be fbfb 3a3f
00000130: 016d d33e a51a fe3e e09e 153f e184 693f
00000140: a8ce 6bbf 3709 68bf 400c 82bf b4f7 4abd
00000150: e177 353f 77d0 2fbf 8226 55bf 986a 763f
00000160: b487 61bf 8f90 53bf 42a3 09bf d1ca f43e
00000170: 6dae 06bf fa22 39bf ff6a fcbe e220 bdbe
00000180: 905f 18bf 8639 6e3f 9cee 14bf be4e 6a3f
00000190: fa1e 05bf e46c 6c3f ebc4 08bf a669 41bf
000001a0: b7d3 313f 5955 513f d245 413f 7b5d 6cbf
000001b0: 10d4 f83d 3f13 563f 45eb 86bf 9487 13bf
-0.5720119 -0.56984603 0.8995969 0.08504069 0.7587369 -0.98293436 -0.6691738 -0.5530776
0.6178171 -0.5816503 -0.48181915 -0.509594 0.5430135 0.5543215 -0.6085077 0.31176496
-0.7840439 -0.29760757 0.8162474 0.6308657 -0.8904411 0.7019613 -0.45716575 0.88314706
0.122346275 -0.57986486 0.7584258 -0.95596325 0.81698895 -0.7554902 -0.92361915 0.5186161
0.5105215 0.09737901 -0.9404498 0.68259364 -0.42167264 -0.50447935 -0.53112954 -0.90273947
0.53311884 0.72634965 0.21241269 -0.6928679 -0.7671478 -0.13201293 0.49340415 -0.9587379
0.31401366 -0.63889194 0.83426845 0.54935384 0.57508636 -0.6602988 0.6334234 -0.77054185
-0.7327687 -0.32572573 0.97517157 0.67464536 -0.471835 -0.75578696 0.8396052 -0.8001366
0.8922309 -0.73925614 -0.5256121 0.49436927 -0.81136876 -0.48276365 -0.9717384 -0.5692696
-0.91081023 0.65537363 -0.47772142 0.7304074 0.412941 0.49629703 0.5844555 0.9121838
-0.9211221 -0.9063906 -1.0159988 -0.049552634 0.70886046 -0.6867747 -0.83261883 0.962564
-0.8809769 -0.82642454 -0.53764737 0.47810987 -0.526099 -0.72318995 -0.49300382 -0.3693915
-0.59520817 0.93056524 -0.5817659 0.915264 -0.5200039 0.92353654 -0.5342547 -0.7555183
0.69463676 0.81770855 0.7549716 -0.9233014 0.12149823 0.8362312 -1.0540549 -0.5762875

layers.1.bias f4 [7]
00000000: 9ba6 9fbe 7571 5fbe 1f33 fc3e 805d b8be
00000010: ea5e 1b3e 170e b03e 9d23 8e3d
-0.31181797 -0.21820624 0.49257752 -0.36008835 0.15172926 0.3438575 0.069403864
