gnn_checkpoints/sage_cora.pt (torch, 188574 bytes, 10 tensors)

convs.0.lin_l.weight f4 [16, 1433]
00000000: f063 2cbb f4ee 043e 6638 1c3d deeb e73d
00000010: 1248 1b3e 7084 1f3e 39a3 16be f26b 8b3d
00000020: 3810 f1bd e25e c63d 2294 16be e798 df3b
00000030: 6f69 df3d 8109 37bd e61e 8b3d 77c9 323e
00000040: 2b0a e9bd 94f8 2f3e 6897 0a3e 39ad 343e
00000050: 68c1 e5bd e6ac 93bd d282 e43d 0584 7b3d
00000060: 081b aa3d c667 553e e52b 583d a5b6 983b
00000070: f581 6dbd ef35 253e d6a2 b53d e023 3a3e
00000080: ff97 0ebe ad4e 0d3e 6884 16be 2b1c 3a3e
00000090: dce4 1a3e 7acf d33d 5422 64be 9b62 4a3e
000000a0: 0154 9cbc dd8e 1b3e 9b01 503e df06 aebd
000000b0: 4670 e4bd 2d36 f8bc 5529 81bd 4741 0a3e
000000c0: 43a4 b43d 05a4 ec3c 0b8a c93d 8d87 513e
000000d0: 5d95 1d3e 3fc9 2bbe 28ad b8bd 69da 7ebb
000000e0: 668a 693d d741 d7bd 0052 1c3e c5c7 263d
000000f0: c85e 803d c40d f4bb 7840 29bd 0a52 6c3d
00000100: 3d5c 473e c06e 153e ca29 6abd bc27 e53b
00000110: 5e6c ea3d 8cb9 c53d 1e21 0cbe a11c 68bd
00000120: 7425 153e c59d 713d 75fb 313e 4d95 883d
00000130: 577c ea3d f985 663e 1066 b13d 5543 07be
00000140: df13 1bbe f94e 3d3e 522b 20be 57ba 843c
00000150: dcd3 393e b765 023e 95f8 aebd 9cb3 69bc
00000160: 86b4 3b3e 6212 95bd a6d0 283e 325d f33d
00000170: d956 1f3e 6c53 343c abb5 213e 1d46 ef3d
00000180: 2380 cd3d 62c3 96bd 5e65 7b3d 44d9 30be
00000190: 6ac8 543d 0680 1c3e 999e 233e a26d 103e
000001a0: 4870 eebd d1e6 0ebc 986b 493e 20e1 233e
000001b0: fe26 083e 0624 6abd 83d9 cc3d 813d a03d
000001c0: 5adc 083e e6b2 b6bd dfd1 26be 12a7 51bd
000001d0: 9dd6 47be 21fd 773d 4fdb d7bd 5b4f 463e
000001e0: d328 c93d 6187 b8bd 3f5f 0a3e 7b29 08be
000001f0: 5a8e 943d 26a7 29be dc8a fd3d c689 193e
00000200: ac98 db3d 2028 0c3e 9fc8 683d e370 233e
00000210: 2102 263e b202 a03d 0684 56bb 53f7 df3d
00000220: 380c 0b3e 3916 d7bd 1c8b 0dbe 1982 0c3e
00000230: b5ee 27be 2d59 e9bd 0e27 12be 0ebd 283d
00000240: 1b5a 623d 103e 063e 178f 6c3e 0207 fd3d
00000250: feb1 8ebd cf66 193e 4081 a53d 8d76 283e
00000260: 0b3a 17be 5199 d63d 2479 47be 37c5 42be
00000270: 3600 363e 2fa5 223e 6c1a f3bd 9639 23be
00000280: 291c 0bbe 3f2b b03c 1616 33be 7629 c9bd
00000290: f328 c9bd 89a8 f73d 4fbe 6fbe 8a26 e7bd
000002a0: 5262 b9bd 6868 263e 96a5 0bbe c322 a9bd
000002b0: 733b 373e ced9 173e 27dc 1e3e 8006 03bc
000002c0: 12da 613e cf89 583e ad80 123e bb18 e83d
000002d0: 50fb 8d3d 41a9 123d 0c8c d9bd ec41 fd3d
000002e0: 52f1 1b3e ce27 e0bd 5ed3 f83d 82ef c4bd
000002f0: 8901 e63d fca5 0cbb d068 183e f464 2fbe
00000300: 8300 6abd 1516 14be d250 47be 18e3 5bbd
00000310: 40cb e4bb d4bb 80bc c133 203e 996b e53d
00000320: efd6 303e fd04 19be c399 2abe 3027 063e
00000330: 7eaa bd3d 6ea3 fb3c d73b 5bbd 957f a6bd
00000340: d0b1 01be ae4c e5bd 4159 37bd bbf2 1cbe
00000350: f1fe 9ebd 162d eb3b e6a5 4bbe edbc cfbc
00000360: 600b 113e 85e8 6fbd 606b 9f3d ff27 16be
00000370: ec22 29be 1e8b 433e 2f4f 373e 1e7f 90bb
00000380: b3b5 0b3d c744 8bbd ddba c53d dbdf 41be
00000390: cd0e 9f3d a5ad 0d3e 04e8 eb3d b6c1 84bd
000003a0: 9f4f 663d cfdc 0cbd 90b3 c93d 0733 2dbe
000003b0: 8d8d ee3d f620 a13c 4987 673e 98c2 54bd
000003c0: 84a3 fdbd eebd 283e e1e6 91bd c43f 1a3e
000003d0: e602 0e3e 1f50 473e 47b7 043e 25dc b83c
000003e0: dae3 503d 94b1 debd 067f 8a3d a0e8 10be
000003f0: 4e75 3d3e 0ec0 cc3c bf31 3dbe 443b 103e
-0.0026304685 0.12981778 0.038139723 0.11324285 0.15164211 0.15577865 -0.14710702 0.06807698
-0.117706716 0.09686066 -0.14704946 0.0068236473 0.10908782 -0.044686798 0.06793003 0.17459665
-0.113788925 0.17184669 0.1353432 0.17644204 -0.1121853 -0.07210712 0.111577645 0.0614052
0.08305937 0.20840368 0.052776236 0.004660445 -0.057985265 0.16133855 0.08868949 0.18177748
-0.1392517 0.13799544 -0.14698946 0.18174808 0.15126365 0.103423074 -0.2227872 0.19764178
-0.019083025 0.15191217 0.20313112 -0.08497404 -0.11154227 -0.03029927 -0.063067116 0.13501464
0.08820393 0.028886804 0.09840783 0.20461865 0.15389009 -0.16775988 -0.09017402 -0.0038887507
0.057016753 -0.10510605 0.15265656 0.04071786 0.06268078 -0.00744793 -0.041321248 0.057695426
0.1946878 0.14593029 -0.05716876 0.006993262 0.11446451 0.09654531 -0.13684508 -0.056667928
0.14565068 0.05898835 0.1738108 0.06669102 0.11449497 0.22512044 0.08662045 -0.13209279
-0.15144299 0.18487157 -0.15641525 0.016202135 0.18147224 0.12734114 -0.08543507 -0.014264014
0.18330583 -0.07278897 0.16485843 0.1188301 0.15560474 0.011006217 0.15791957 0.11683295
0.10034206 -0.07361485 0.06137597 -0.1727038 0.051948942 0.15283212 0.15978469 0.14104322
-0.1164251 -0.008722023 0.1966995 0.16003847 0.13296124 -0.05716326 0.100024246 0.07824231
0.13365307 -0.08920841 -0.16290997 -0.05118472 -0.19515462 0.060544137 -0.10539877 0.19366209
0.0982224 -0.090101965 0.13512896 -0.13297074 0.07253714 -0.16567668 0.12380001 0.14993963
0.10722479 0.13687181 0.056831952 0.15961032 0.1621175 0.07813014 -0.00327325 0.10935845
0.1357888 -0.105022855 -0.13822597 0.13721503 -0.16399653 -0.11393962 -0.1427271 0.04119592
0.055261713 0.13109612 0.2310146 0.12354852 -0.06967543 0.14980625 0.08081293 0.16451474
-0.14768235 0.104784615 -0.19479805 -0.19020544 0.17773518 0.15883325 -0.11870274 -0.15939936
-0.13584961 0.021504996 -0.17488894 -0.09822361 -0.098222636 0.120926924 -0.2341244 -0.112866476
-0.09051956 0.16250765 -0.13637385 -0.082585834 0.17893772 0.1482918 0.15513669 -0.007997155
0.22055843 0.2114632 0.14306898 0.11332842 0.069327 0.035805944 -0.10622415 0.12366089
0.15228775 -0.10945092 0.1214969 -0.09615995 0.112307616 -0.002146124 0.14883733 -0.17128354
-0.057129394 -0.14461549 -0.19464424 -0.05368337 -0.006982237 -0.015714563 0.15644743 0.11202163
0.1726949 -0.14943309 -0.16660218 0.13100886 0.092610344 0.030717578 -0.053523865 -0.08129803
-0.12665486 -0.11196266 -0.044762854 -0.1532697 -0.0776347 0.0071770055 -0.19887504 -0.025358642
0.14164495 -0.058571357 0.07784152 -0.14663695 -0.16517228 0.19096038 0.179013 -0.004409685
0.03410883 -0.068002276 0.09654782 -0.1893305 0.07766495 0.13835771 0.11518863 -0.0648226
0.056228276 -0.034390267 0.09848702 -0.16913997 0.116480924 0.019669037 0.22610201 -0.05194339
-0.12384704 0.16478702 -0.07124115 0.15063387 0.13868293 0.19464158 0.1296054 0.02256591
0.050998546 -0.10873714 0.06762509 -0.1415124 0.1850178 0.024993923 -0.18476008 0.14085108

convs.0.lin_l.bias f4 [16]
00000000: 4fb5 313e 6bba e13d a54f ed3d a5f2 903d
00000010: 895f e73d bae1 223e f0ca 143e c899 fd3d
00000020: fafd f23d 72b7 e33d dcff 033e 98d3 883d
00000030: d9a6 ff3d dba3 0f3e de84 ee3d aad2 473d
0.1735432 0.110218845 0.115874566 0.07077531 0.11297519 0.1590642 0.1453054 0.12382847
0.118648484 0.11118974 0.12890571 0.06680983 0.124829955 0.1402735 0.11646436 0.04878489

convs.0.lin_r.weight f4 [16, 1433]
00000000: 1dcf f3bd fabc 1d3e 094c e03d 06b6 303d
00000010: bf56 293e 7514 de3c 5ba0 05be ce03 edbd
00000020: 8ab1 2a3e 6b4d d73c 46f2 c93c 9c35 2b3e
00000030: b271 36bd 5a0d 3abd b130 123e dd5d 933a
00000040: b04a dc3d daae 253d 535e 1d3e 4bf0 393e
00000050: 5545 9ebb 96d8 3b3d cc4a d6bb a989 38be
00000060: 4b06 9b3d 0492 0bbd ce19 11bd a6c0 b93d
00000070: c828 e6bc af65 223e fe0e f83d 0118 6c3c
00000080: 4a12 c8bc 149e c63d 83da fc3d f0b2 aabd
00000090: a4c9 2a3e 4383 4abe f8e3 d2bd 065a 0ebb
000000a0: 4d4d 593e 9811 10bc a6db 833d ed13 0a3e
000000b0: 306c 893d 52eb 2b3d 4978 34be f386 263e
000000c0: 37fc 503e c39c 263e 1ae4 99bd 8353 293e
000000d0: 6354 5fbc e465 1b3e cf4d ff3d d0ee 313e
000000e0: 79fe 963d 475f 28bd 9eff 253e e060 89bd
000000f0: 3f9e 0d3e 7435 3abc cb21 5f3e f14d 36be
00000100: 4405 2bbe 1296 0c3e bad9 16be 5b33 173e
00000110: 7cc0 1fbc f62f 003e 5ed6 723e f971 313e
00000120: 1fc7 6ebd 515f 39bd f550 eabc 04e4 68bc
00000130: 08f5 033e 61fb 9cbd 231c 393e 9e06 803e
00000140: 9834 093d 8de4 d6bc ec5c 8a3d 7504 003b
00000150: 5e49 0bbe 0e02 f6bd 00c5 283e c56e 98bc
00000160: 48ef aa3d e53e cf3c 0d13 a13d b487 b03d
00000170: d880 063e c4e4 b1bd cfde d43d 76d8 013e
00000180: a31c 3d3e 0d98 f23c d661 2b3c d949 eabd
00000190: 6e26 a43d 16b3 51bd d96a c73d 73bb 313e
000001a0: e7f0 aabd ef09 123e 4ce1 16bc 5767 64bc
000001b0: d0a5 103e 3e37 383e 3aaf 8bbd 7d34 48bd
000001c0: b523 06be 7593 da3b 001b 02be 5067 cbbd
000001d0: 07f4 1bbc 7c31 893d 1b12 e0bd 4ff4 e4bd
000001e0: 49e9 1f3d c731 3f3e 64dc 0cbb 5fe5 3d3e
000001f0: cfba 2e3e 270b 0e3e 175d 1f3e d315 b6bd
00000200: da01 5c3d 5840 2d3e 1de0 45be 1110 69bd
00000210: 2829 a43d 7a80 0c3e fce9 1fbe f9c6 5d3e
00000220: 61ca 793e 91b2 e3bc c5ca 193e 1fd8 0d3e
00000230: 7417 22be 40d9 2dbe 2e79 0d3e 2104 083e
00000240: 5ff6 3cbd 3882 2b3e 2c99 2e3e ce78 a3bd
00000250: 7ff7 d9bd 9ef7 c83d a2dd 673e 15e7 a63c
00000260: 60c0 103e 9534 d13d f606 47bd 7fb1 763d
00000270: 1164 01bd 361c 72ba e48b b339 65d9 22bd
00000280: fb73 113c 7fd4 0d3e acdb 043e a87a c8bd
00000290: 3aaf 68bc 9706 943d 1445 c3bc 0b58 1abe
000002a0: ec66 333d f8fd 03be 4156 2c3e b93f cc3c
000002b0: 1990 133e 220a e3bd 29b8 cfbd 5300 453e
000002c0: 618c cabd 6b16 81be ed30 21be c115 803d
000002d0: 4d97 1bbe df08 bcbc c9a9 643d 97bf 7f3c
000002e0: 76e0 09bc eb1c 283e af8c 11bd de06 b43b
000002f0: a150 66bb b066 a7bb cc01 52be 32d6 8dbd
00000300: cb3c b7bc 4b3c 143e cfb2 10bd 8f0a 123e
00000310: 0c2a 10be 1478 323e 5d43 a6bd b430 e7bd
00000320: fe94 9f3c 6237 ba3c 19a4 203c 2b19 3f3c
00000330: 66ff c03d 5f86 d5bd 7198 02be eff2 e83d
00000340: 94a8 26be 1708 cabd 5fc6 d53d 61ee 3c3d
00000350: c284 adbc 866d c4bd fd0c 0abe ad98 e13d
00000360: 0dcd 17bd 0610 f53d 6d4a 31be d19e 99bd
00000370: 9cda 6cbd 654e 1d3e f897 2c3e 2f75 0ebe
00000380: 44e2 353e e082 c8bd 4f0c dc3d b3ba 9c3c
00000390: d8de a4bd cdb7 adbd 211d 58bd cf9c 1c3e
000003a0: 85c0 21be d6cd 84bd 1eb6 24be 7698 0d3e
000003b0: 2ce9 f0b9 1f87 6f3d c817 473e 061d c83d
000003c0: f345 9ebd c6bb 0f3c 1c6e 3c3c 7931 bcbd
000003d0: 2972 0d3e 3106 99bc cc58 2f3e a112 273e
000003e0: f610 14be 8e18 ea3d 6094 d3bd 3d64 3f3d
000003f0: eb63 293c 67c7 003c 7569 f8bd d60a e93d
-0.11904738 0.1540412 0.109520026 0.04314234 0.16536997 0.027109364 -0.13049452 -0.11572991
0.16669288 0.026282033 0.024651658 0.16719669 -0.044542022 -0.04542289 0.14276387 0.0011243183
0.10756433 0.040449955 0.15368013 0.1815807 -0.0048300424 0.04586085 -0.006539678 -0.18021263
0.0756956 -0.0340748 -0.035425 0.09069948 -0.028095618 0.15859102 0.121122345 0.01441002
-0.024422783 0.0969812 0.12346365 -0.08334911 0.16678482 -0.19776635 -0.10297388 -0.0021721139
0.21220894 -0.008793257 0.06438379 0.13484164 0.06710088 0.041972466 -0.1762401 0.16262417
0.20408712 0.16270737 -0.0751421 0.16535763 -0.013630959 0.15175587 0.12466013 0.17376256
0.073727556 -0.04110649 0.16210791 -0.067079306 0.13829897 -0.011365283 0.21790235 -0.1780317
-0.16701227 0.13729122 -0.14731494 0.14765684 -0.009750482 0.12518296 0.23714587 0.17328633
-0.058295365 -0.045256916 -0.028603056 -0.014214519 0.12886441 -0.07665134 0.1807714 0.2500505
0.033497423 -0.026232028 0.06756005 0.0019533907 -0.13602206 -0.12012111 0.164814 -0.018607507
0.083464205 0.025298545 0.07864962 0.08619633 0.13135087 -0.08686212 0.1039406 0.1268023
0.18467955 0.02961352 0.010460338 -0.114398666 0.080151424 -0.05119618 0.097371764 0.17356662
-0.0834673 0.14261602 -0.009208988 -0.013940654 0.14125752 0.17989823 -0.06820531 -0.04887818
-0.13099559 0.0066704103 -0.12705612 -0.09931815 -0.00951863 0.066988915 -0.10940953 -0.11179411
0.039040837 0.18671332 -0.0021493668 0.1854453 0.1706345 0.13871442 0.15562855 -0.088908814
0.053712703 0.16919076 -0.19323774 -0.056900088 0.080156624 0.13720885 -0.15616602 0.21657933
0.24393608 -0.027795108 0.15018757 0.13851975 -0.15829259 -0.16977406 0.13815758 0.13282825
-0.046133395 0.16748893 0.17050618 -0.07982026 -0.10642909 0.09812854 0.2264314 0.02037386
0.14135885 0.10215107 -0.048590623 0.060227867 -0.03158957 -0.0009235771 0.00034245767 -0.039758105
0.00887775 0.13850592 0.12974423 -0.0978902 -0.0142019335 0.072278194 -0.02383665 -0.15072648
0.043799326 -0.1288985 0.16829778 0.02493273 0.14410438 -0.11085917 -0.10142548 0.19238405
-0.098900564 -0.25212416 -0.1574132 0.06254149 -0.15194435 -0.022953449 0.055825982 0.015609643
-0.008415332 0.16417281 -0.035534557 0.0054939827 -0.0035143273 -0.005108677 -0.20508498 -0.0692562
-0.022367856 0.14476125 -0.035326775 0.1426184 -0.1407854 0.17428619 -0.08118317 -0.11288586
0.019480225 0.022731487 0.009804749 0.011663715 0.094237134 -0.1042602 -0.12753464 0.11374461
-0.16275245 -0.09864824 0.10438227 0.046125773 -0.021181468 -0.095912024 -0.13481517 0.11015449
-0.037060786 0.11965947 -0.17313547 -0.07500995 -0.05782567 0.15361936 0.16854846 -0.1391189
0.17762095 -0.097905874 0.10744535 0.019131994 -0.080503166 -0.08482323 -0.052762154 0.15294193
-0.15796097 -0.064845726 -0.16085097 0.1382769 -0.00045950094 0.05847847 0.19442666 0.09771161
-0.077281855 0.008772796 0.0115008615 -0.09189124 0.1381308 -0.01867971 0.17123717 0.163157
-0.14459595 0.11430465 -0.10331035 0.046726454 0.010338764 0.007860041 -0.12129489 0.1137902

convs.1.lin_l.weight f4 [7, 16]
00000000: 53f4 7e3e fbe1 e0be efd9 07bf 4a03 93be
00000010: 4fb8 56be bef8 a23e 9c61 c23e d9db 08be
00000020: 46e6 813e 8bef d4be e355 cd3e 0d44 c2be
00000030: 8c39 8e3e 4b8c 6ebe f099 393e e6b0 b63e
00000040: 0880 fbbe cc9a e73e 8829 edbe df30 6b3e
00000050: 4fa5 d33e 0138 8ebe c0a3 6f3d 68e3 ccbe
00000060: ace9 b6be 8642 ecbd 80c6 a13e 258c ffbe
00000070: 0db6 ec3d d2e3 ecbe dd46 dfbe 7fd5 93be
00000080: e22d c63d 3328 e6be ce0e e93e f115 75be
00000090: a925 383e 8cbe b3be 0356 b4be c73a 4fbe
000000a0: 0cce fabe fd91 1c3e ed44 08bf f37c 893e
000000b0: fbf1 1abd cf7d be3e f0bd 613e 9a6f d33e
000000c0: ce7c 483e ddf1 52be a830 ce3e 29f8 d4be
000000d0: 2ea1 bd3d 894b 8cbe c4d2 dcbe 2a44 0d3e
000000e0: 8fd3 ad3e b2ea f4be 3c5c c63e 9d96 053f
000000f0: d2ec e7be 4600 24be b992 cfbe fc72 cb3c
00000100: eb9b e4bd 5ef9 0dbc 6bd8 913e 076a 5dbe
00000110: c211 d3be ba62 243e 824d 74be 4d13 aabe
00000120: f5ac c2be 26c6 bc3e b95b a5be 7a95 58bd
00000130: 1708 da3e 1bac 3abe be38 91be 2d33 ccbe
00000140: dc2e 2dbc 0246 bdbe 06b2 63bd 51b1 4c3e
00000150: 8756 65be 297d 983e c3d8 be3e f332 0d3d
00000160: f783 ab3e abdd cf3d 143f ecbe f124 ab3e
00000170: bfc3 cebe a416 83bc b0e7 ffbd 5b02 32be
00000180: 8536 703e 6a5a bb3e 701c ffbe 7794 9f3e
00000190: 415f 13bf 14f4 cfbe 3013 123e 938c c83e
000001a0: ebff ccbe dff2 f7be 6553 a6be 35e4 4bbe
000001b0: 0658 09bf 50c0 b9bd f88f c83e 221d 663e
0.2489789 -0.4392241 -0.53066915 -0.28713447 -0.20968746 0.318304 0.37965095 -0.13365115
0.25370997 -0.41589007 0.4010459 -0.37942544 0.2777828 -0.23295705 0.18125129 0.35681838
-0.49121118 0.45235288 -0.46320748 0.22967862 0.41337058 -0.27777103 0.058505774 -0.40017247
-0.35725152 -0.11536126 0.31596756 -0.4991161 0.11558161 -0.46267563 -0.43608752 -0.28873822
0.0967672 -0.44952545 0.45519108 -0.23934151 0.17983116 -0.35106313 -0.35221872 -0.20237266
-0.48985326 0.15290065 -0.5323017 0.2685314 -0.037828427 0.3720536 0.22045112 0.41296083
0.19578859 -0.20600076 0.40271497 -0.4159558 0.09259258 -0.2740138 -0.4312955 0.13795534
0.3395047 -0.47835308 0.38742244 0.5218294 -0.45297867 -0.1601573 -0.40541628 0.024835102
-0.111625515 -0.008665411 0.28485426 -0.21622477 -0.41224486 0.16053286 -0.23857692 -0.3321785
-0.3802258 0.36869925 -0.3229654 -0.052876927 0.42584297 -0.18229716 -0.28363603 -0.39882794
-0.010570254 -0.36967474 -0.0555897 0.19989516 -0.22396289 0.2978299 0.3727475 0.034472417
0.3349912 0.10149702 -0.46141875 0.33426622 -0.40383717 -0.016002007 -0.12495363 -0.17383711
0.23458298 0.36592418 -0.49826384 0.31167957 -0.5756722 -0.40615904 0.14265132 0.3916975
-0.40039 -0.48427483 -0.324855 -0.19911273 -0.5364994 -0.09069884 0.3917234 0.22472051

convs.1.lin_l.bias f4 [7]
00000000: 182d 15bd b4b9 7b3e 8c8e 5cbd 3e32 4cbe
00000010: ed68 0fbe 8627 8fbe 1e3c 3c3e
-0.036419958 0.24582559 -0.05384688 -0.19941041 -0.1400487 -0.2795984 0.18382308

convs.1.lin_r.weight f4 [7, 16]
00000000: ed94 8dbe 12c6 a7be 6519 3c3e bb70 b8be
00000010: 393c e4be d7b3 53be 2dee 873d f6d3 ebbe
00000020: 82f5 bebe cdb7 973e 1a82 e13e 3a37 b2be
00000030: 85d2 453e 023a e2be 6018 6cbd 1288 9e3e
00000040: 32a0 b7be e593 983e 9a30 9c3e 108a 733e
00000050: 2b15 033e 107d f63d 6ad0 c0be 4d0e c8bc
00000060: 777d 2f3e 518a afbe e42a ba3e fbb9 4abe
00000070: 9dd1 ebbe aa51 c93d a700 dcbe 0289 94bd
00000080: 4d2b 9a3e 337e b9be c77b 8f3c a9bf 8bbe
00000090: c954 8abe d8b4 853e 07a0 4c3e 0a44 2c3e
000000a0: f11d c4be aea3 bcbe 41a5 1fbe 5059 ffbe
000000b0: b48d f9be a517 903e ab51 cebe cec6 92bc
000000c0: 78b6 8f3e 1595 503e 66ad a73e 82b7 93be
000000d0: c5aa 0e3e 7069 c9be 36ae f1be b1c2 423e
000000e0: ef8a 883e 1288 6dbe c8d1 bdbd fc4b b93e
000000f0: 890d 0bbd 4230 a5be 162c b7be 5326 97be
00000100: 50f2 aebe 9ce9 0c3e 5482 b6be 9850 8a3e
00000110: d877 c5be a5a2 7b3d 6a14 a33e 1894 90be
00000120: 213a 73be 357c b43e 0ca5 a3be 1912 bb3e
00000130: 9d84 153e f06f 8b3e df18 a53e 07b4 45be
00000140: 2453 7e3e df48 8c3d a5c4 90be 0303 633e
00000150: 132a 893e 5b23 533d 0235 013e adba eabe
00000160: 6212 753e efcd c73c 55d9 9fbe 6769 2f3d
00000170: a1c6 83be a3f5 d3be cf77 be3e c356 adbe
00000180: 5b88 0b3e 5518 c4be e303 85be 7ad2 813e
00000190: 7328 f4be 5995 f6be fc87 03bf c43b 8b3e
000001a0: bf07 a73e 5a75 c2be dc57 53bc 547b 53be
000001b0: 1398 dabe 0c81 663e 7633 efba 5281 933e
-0.27652684 -0.32768303 0.18369062 -0.36023507 -0.44577196 -0.20674072 0.06637225 -0.4606015
-0.37296683 0.29632416 0.44044572 -0.3480776 0.19318588 -0.4418488 -0.057640433 0.30963188
-0.35864407 0.29800335 0.3050583 0.23783135 0.12801044 0.120355725 -0.37659007 -0.024420882
0.17137705 -0.34285215 0.36360848 -0.19797508 -0.4605836 0.09830029 -0.42969248 -0.07252695
0.3011116 -0.36229095 0.017515076 -0.27294663 -0.2701781 0.26114535 0.1998292 0.1682283
-0.38304093 -0.36843628 -0.15590383 -0.49872828 -0.48740923 0.2814304 -0.40296683 -0.017917063
0.280689 0.2036937 0.3274948 -0.28850943 0.13932331 -0.39338255 -0.47203225 0.19019581
0.26668498 -0.23196438 -0.09268528 0.36190784 -0.033948455 -0.3226338 -0.35775822 -0.29521427
-0.34169245 0.1376099 -0.35646307 0.27014613 -0.38567996 0.061434407 0.31851512 -0.28237987
-0.23752643 0.35251012 -0.31961858 0.36537245 0.14601369 0.2723384 0.32245538 -0.19306956
0.24836403 0.068498366 -0.28275028 0.22169118 0.26789913 0.05154739 0.12617877 -0.45845547
0.23932794 0.024390189 -0.312205 0.04282513 -0.2573748 -0.41398343 0.37200782 -0.33855256
0.13626234 -0.38299814 -0.25979528 0.25355893 -0.4768711 -0.48160818 -0.5137937 0.27194035
0.32623097 -0.37980157 -0.012899365 -0.20652515 -0.42694148 0.22510165 -0.001824959 0.288096

bns.0.weight f4 [16]
00000000: 0000 803f 0000 803f 0000 803f 0000 803f
00000010: 0000 803f 0000 803f 0000 803f 0000 803f
00000020: 0000 803f 0000 803f 0000 803f 0000 803f
00000030: 0000 803f 0000 803f 0000 803f 0000 803f
1.0 1.0 1.0 1.0 1.0 1.0 1.0 1.0
1.0 1.0 1.0 1.0 1.0 1.0 1.0 1.0

bns.0.bias f4 [16]
00000000: 0000 0000 0000 0000 0000 0000 0000 0000
00000010: 0000 0000 0000 0000 0000 0000 0000 0000
00000020: 0000 0000 0000 0000 0000 0000 0000 0000
00000030: 0000 0000 0000 0000 0000 0000 0000 0000
0.0 0.0 0.0 0.0 0.0 0.0 0.0 0.0
0.0 0.0 0.0 0.0 0.0 0.0 0.0 0.0

bns.0.running_mean f4 [16]
00000000: 0000 0000 0000 0000 0000 0000 0000 0000
00000010: 0000 0000 0000 0000 0000 0000 0000 0000
00000020: 0000 0000 0000 0000 0000 0000 0000 0000
00000030: 0000 0000 0000 0000 0000 0000 0000 0000
0.0 0.0 0.0 0.0 0.0 0.0 0.0 0.0
0.0 0.0 0.0 0.0 0.0 0.0 0.0 0.0

bns.0.running_var f4 [16]
00000000: 0000 803f 0000 803f 0000 803f 0000 803f
00000010: 0000 803f 0000 803f 0000 803f 0000 803f
00000020: 0000 803f 0000 803f 0000 803f 0000 803f
00000030: 0000 803f 0000 803f 0000 803f 0000 803f
1.0 1.0 1.0 1.0 1.0 1.0 1.0 1.0
1.0 1.0 1.0 1.0 1.0 1.0 1.0 1.0
